results/test2/ReachTarget/checkpoint.pt (torch, 145719 bytes, 12 tensors)

network_body._body_endoder.seq_layers.0.weight f4 [128, 1]
00000000: 905d 4a3f bbe9 793e 428f e03f fc5c abbe
00000010: f928 423f 21a1 b1be bc7b 26be 0b5d ed3f
00000020: 6b33 88bf 272a b5bd f63f 54be b8e8 bc3f
00000030: 6a6a 4f3f d7f4 85bf a0cf 05bc c7aa e1bf
00000040: fc51 2c3f 5727 3fbe dade 133e 199c 24be
00000050: 7b64 693f 10c1 0a3f 2fd8 803d 4a0f 763e
00000060: 5864 003f 1483 6c3f 2f42 bbbe e0a5 15bf
00000070: 1483 d23d 37d2 8d3e cb93 e03f 45b7 9d3e
00000080: 223f 223f 90e5 cf3f 1080 9f3f c669 18bf
00000090: b9bc 243f aeb4 7cbe a545 2dbf 8d4b 4d3f
000000a0: e47f 1040 2170 b93c e40e f9bd 05ff 0d3f
000000b0: 24d6 cc3f 7f1b 953f b4fa bb3d 8dac 4b3f
000000c0: bd2f 70be 6966 82bf 340d c0be c5d9 9a3c
000000d0: 0090 99bf a565 b5bd 9019 1bbf 8c27 a03f
000000e0: d5c7 833e f2ad b63f fedf 563f 476a 06bf
000000f0: f91a a63e aeb2 32bf 55f8 9bbe 5926 0340
00000100: 7643 a7bf a562 c93f 08ef 933e 5671 a9bf
00000110: 50cb db3f c4e0 10bf d41e 363f 94de 81be
00000120: ee55 943e dec1 393e 5f3e b73f 231e dbbe
00000130: 4aeb 003f d2a6 1e3e 62bc 98bf 7dac ddbf
00000140: a608 cbbd f880 b7bd 0f17 87bf f657 ec3e
00000150: c5fb 793f 38da 283f 2869 9fbf 462c 9d3f
00000160: e074 03bf d271 8a3f 302a fc3e ef0b 0ac0
00000170: 4d6b 9dbf 255d 12bf 36ca 75bf c71d aabf
00000180: d3e8 8abf 0ff3 e3bd a851 3ebf 8d91 96bf
00000190: 7cc5 22be 32a5 abbe c241 b0bf 75ae 373e
000001a0: ed63 483f 21d6 6c3d 05ae 8cbe 8974 b8be
000001b0: c1a6 b0bf 69d7 e4be df66 b63f 6c02 7f3f
000001c0: d11a c8be 47c4 3f3f 9459 9dbe 810f e9bf
000001d0: bdbf 4d3e 5bfc d33d 8056 3d3d 5b51 0fbf
000001e0: c5b6 05bf 2ab4 a53f fd30 e83f 0bc3 353e
000001f0: 3478 d33f f154 a7bf cba1 d6bf 85e4 bb3f
0.79049015 0.24405567 1.7543719 -0.3346938 0.7584377 -0.34693244 -0.16258138 1.854402
-1.0640692 -0.088459305 -0.20727524 1.475852 0.8102175 -1.0465344 -0.008167177 -1.7630242
0.673126 -0.1866735 0.1444048 -0.16075172 0.91168946 0.5420084 0.06291234 0.2402927
0.5015311 0.9238751 -0.36573932 -0.5845623 0.102789074 0.27699444 1.7545103 0.30803886
0.63377583 1.6241932 1.2460957 -0.595364 0.6435047 -0.24678299 -0.67684394 0.80193406
2.2578058 0.022636475 -0.12161043 0.55467254 1.600285 1.1649016 0.09178677 0.79560167
-0.2345571 -1.0187503 -0.37510073 0.018902669 -1.199707 -0.08857278 -0.6058588 1.2512069
0.25738397 1.4271834 0.83935535 -0.52505916 0.32442454 -0.69803894 -0.304629 2.0492156
-1.3067462 1.5733229 0.28893304 -1.3237712 1.7171421 -0.56592965 0.7114079 -0.25365126
0.2897181 0.1814036 1.4315909 -0.4279643 0.5035902 0.15493324 -1.193249 -1.7318264
-0.09913759 -0.08960146 -1.0553912 0.4616086 0.97649795 0.65957975 -1.2453966 1.2279136
-0.5135021 1.0815985 0.49250937 -2.1569784 -1.2298371 -0.5717338 -0.96011674 -1.3290337
-1.0852302 -0.11130344 -0.7434335 -1.1763169 -0.15895647 -0.33524472 -1.3770068 0.17937644
0.78277475 0.057821397 -0.27476516 -0.3602641 -1.3800889 -0.44695595 1.4250144 0.9961307
-0.3908296 0.7490887 -0.30732405 -1.8207856 0.20092674 0.10350867 0.04622507 -0.55983514
-0.5223201 1.2945607 1.813995 0.17750184 1.6521058 -1.3072797 -1.6768125 1.4679114

network_body._body_endoder.seq_layers.0.bias f4 [128]
00000000: 0000 0000 0000 0000 0000 0000 0000 0000
00000010: 0000 0000 0000 0000 0000 0000 0000 0000
00000020: 0000 0000 0000 0000 0000 0000 0000 0000
00000030: 0000 0000 0000 0000 0000 0000 0000 0000
00000040: 0000 0000 0000 0000 0000 0000 0000 0000
00000050: 0000 0000 0000 0000 0000 0000 0000 0000
00000060: 0000 0000 0000 0000 0000 0000 0000 0000
00000070: 0000 0000 0000 0000 0000 0000 0000 0000
00000080: 0000 0000 0000 0000 0000 0000 0000 0000
00000090: 0000 0000 0000 0000 0000 0000 0000 0000
000000a0: 0000 0000 0000 0000 0000 0000 0000 0000
000000b0: 0000 0000 0000 0000 0000 0000 0000 0000
000000c0: 0000 0000 0000 0000 0000 0000 0000 0000
000000d0: 0000 0000 0000 0000 0000 0000 0000 0000
000000e0: 0000 0000 0000 0000 0000 0000 0000 0000
000000f0: 0000 0000 0000 0000 0000 0000 0000 0000
00000100: 0000 0000 0000 0000 0000 0000 0000 0000
00000110: 0000 0000 0000 0000 0000 0000 0000 0000
00000120: 0000 0000 0000 0000 0000 0000 0000 0000
00000130: 0000 0000 0000 0000 0000 0000 0000 0000
00000140: 0000 0000 0000 0000 0000 0000 0000 0000
00000150: 0000 0000 0000 0000 0000 0000 0000 0000
00000160: 0000 0000 0000 0000 0000 0000 0000 0000
00000170: 0000 0000 0000 0000 0000 0000 0000 0000
00000180: 0000 0000 0000 0000 0000 0000 0000 0000
00000190: 0000 0000 0000 0000 0000 0000 0000 0000
000001a0: 0000 0000 0000 0000 0000 0000 0000 0000
000001b0: 0000 0000 0000 0000 0000 0000 0000 0000
000001c0: 0000 0000 0000 0000 0000 0000 0000 0000
000001d0: 0000 0000 0000 0000 0000 0000 0000 0000
000001e0: 0000 0000 0000 0000 0000 0000 0000 0000
000001f0: 0000 0000 0000 0000 0000 0000 0000 0000
0.0 0.0 0.0 0.0 0.0 0.0 0.0 0.0
0.0 0.0 0.0 0.0 0.0 0.0 0.0 0.0
0.0 0.0 0.0 0.0 0.0 0.0 0.0 0.0
0.0 0.0 0.0 0.0 0.0 0.0 0.0 0.0
0.0 0.0 0.0 0.0 0.0 0.0 0.0 0.0
0.0 0.0 0.0 0.0 0.0 0.0 0.0 0.0
0.0 0.0 0.0 0.0 0.0 0.0 0.0 0.0
0.0 0.0 0.0 0.0 0.0 0.0 0.0 0.0
0.0 0.0 0.0 0.0 0.0 0.0 0.0 0.0
0.0 0.0 0.0 0.0 0.0 0.0 0.0 0.0
0.0 0.0 0.0 0.0 0.0 0.0 0.0 0.0
0.0 0.0 0.0 0.0 0.0 0.0 0.0 0.0
0.0 0.0 0.0 0.0 0.0 0.0 0.0 0.0
0.0 0.0 0.0 0.0 0.0 0.0 0.0 0.0
0.0 0.0 0.0 0.0 0.0 0.0 0.0 0.0
0.0 0.0 0.0 0.0 0.0 0.0 0.0 0.0

network_body._body_endoder.seq_layers.2.weight f4 [128, 128]
00000000: 25d5 0e3e 2ede 70bd 5851 84bd 8909 2b3e
00000010: a8c6 7e3d f7f1 fbbb 3e78 98bd 707c 8e3d
00000020: a7b7 c7bd ba31 9d3d 9d12 51bc 42e0 093c
00000030: 8ca3 4dbc d57c 4fbe 94b8 cdbc e391 d8bc
00000040: 9fd1 0abe 4c75 813d 13af ad3c efc2 8ebc
00000050: fc84 1cbd 60e9 e1bb 315d 4ebd ae4e 953d
00000060: 0aa1 a9bd d889 02bd e43d a2bd b51a 933d
00000070: 6bce 68bd cf36 83bd ecf0 9e3d 20b5 773d
00000080: 529c ad3d e615 ccbc ca7c 5fbc ce19 5d3d
00000090: f09b 2b3d 3014 753c b9eb e4bb 0f44 ba3d
000000a0: 1296 7a3d 2fbe 35be 57b8 cb3d 1fa1 38be
000000b0: 432f af3d 590e d33d aaf5 1cbc 3078 5fbd
000000c0: a9f3 f23b abd4 2e3c a5d3 23be 3da1 0fbe
000000d0: 2651 7cbc 0120 52bd a82c 423d 57f5 083d
000000e0: 7bd7 9cbd e09a 60be 8075 0dbe aa53 9e3d
000000f0: f585 b03d 0c36 02bd 13cd 863d e604 d8bd
00000100: d4c9 f6bd 837b 00bd d8d7 933c ed88 c1bd
00000110: 5338 c8bc aae0 c83c 3157 943d 3c00 a7bc
00000120: 1324 cb3c 5407 b23d d3ae ffbc c82a a83d
00000130: 2a12 0bbe eef9 b63d 3043 1f3e 2bc4 1b3d
00000140: e06a 9dbd a662 a1bb 6fcb ef3c c122 b5bd
00000150: e1d7 313d 3c96 9d3d f3d8 25be a48a 433e
00000160: 54cf 213e 1b20 ccbc 270b 603c 475e 20bc
00000170: e38d c23c f061 203e 1de2 0b3c dd21 253e
00000180: 5fbd 393e d02b b23d 4210 ce3d 22fe 02be
00000190: a38f 1dbe 6530 4c3e 0aa7 cfbd 72e1 c73d
000001a0: e184 9fbd 94e0 b7bc 1d9c 0b3e 0bd4 62bd
000001b0: 0731 8d3d 780e 94bd 5344 9cbd 750b 083e
000001c0: f086 bc3d 2395 49bd 72fb 31be ada7 923d
000001d0: 5911 cc3b 298f ddbd c22f a83b bf4b 943b
000001e0: adf7 4a3d 1de0 ee3b 1b68 5e3d 5f97 02bd
000001f0: 46c6 4b3e cf7a cabd 3c72 07bc 8063 d13d
00000200: e696 093e 9c5f 523d 0172 89bd 58be b4bd
00000210: 478b 83bc c371 733c 0bf6 8abb 03bc 6bbc
00000220: 56b9 a03c 4807 b23d 207a 1cbd 3286 bdbd
00000230: 4c4f a4bb bed7 68bc cc61 16be 968e 0abe
00000240: 905b 40bd 2470 b43c 2d48 fc3d 6f31 1cbb
00000250: 8def c33d 0ecc 353d 2c0f d03d e3e2 edbc
00000260: 9749 80bd 9b6c 93bd d80c 3a3d cce0 713c
00000270: 41d4 0a3d f917 013d d44d 5a3d 98be 0dbe
00000280: a582 4dbe a576 4d3d 4cf9 11bd df6c a2bd
00000290: b0b2 15bd 2ba7 5b3d a2a3 5ebc 2cb2 5cbc
000002a0: 99fc a9bc 5f45 303e 5e71 40bc 99fd a13c
000002b0: 151d 2e3d 336c a93d f9af 253e 154c 38bc
000002c0: d264 44bd a45e 333e 490f e13b 3a08 a43c
000002d0: a547 adbd 3774 293e 0807 39bc 5e5d 0f3c
000002e0: 5081 873c 1450 eabd d04e ea3d 61d0 d4bd
000002f0: b79d f9bd 9fac dfbd 636b b93c b358 8d3b
00000300: 623d 813c 1315 283e 83cd b5bd 7d79 d63d
00000310: 6443 c8bd c75d 133d ce6d 8a3d 0fbc 7d3d
00000320: 1b5c 013d 00fa 093e ad04 573c fac0 55bd
00000330: 5561 27bd e48b f13c d67f 5ebe e19c 7b3c
00000340: a0ba dcbc fce6 c2bd e079 0dbe 21c1 14bc
00000350: e01e 453c 9ef3 533d 924d d4bd 8cec 413c
00000360: 5473 3dbe a329 73bb de6a 6fbc 8a2c 1b3d
00000370: c1f7 0a3d aa55 6d3c 413b b83b 14cf acbc
00000380: 8e25 343d 7315 833d ed17 e3bc d301 8cbd
00000390: 557b 42bd d7c4 b8bc 1ac6 91bc 444f 003e
000003a0: d57f 23bd 00a1 3fbd 73ab 553e 327b ffbb
000003b0: 1615 a43b c1ac 6cbb 1afc e9bd 263d 31bb
000003c0: 7e4f 823d a803 1d3e 9441 a03c 7842 bd3c
000003d0: a112 173c 79fd 14bd 0ff3 863d 9751 683c
000003e0: 5b2a e3bc 8dd2 2d3e 48ec 3f3e b209 f1bc
000003f0: 1270 a83d b606 053e 3705 bc3c ac8a 873d
0.13948496 -0.058805637 -0.064608276 0.16702856 0.062201172 -0.0076887566 -0.074448094 0.06957328
-0.09751826 0.076755 -0.012760785 0.008415284 -0.0125512 -0.20262463 -0.025112428 -0.026436752
-0.13556527 0.06321201 0.021201646 -0.017426936 -0.03821276 -0.0068942755 -0.050381843 0.072903976
-0.08282669 -0.03186974 -0.07921961 0.07182828 -0.05683748 -0.06406938 0.07760796 0.06047547
0.08477081 -0.024912786 -0.013640592 0.053979687 0.04189676 0.014958426 -0.006986108 0.090950124
0.061178274 -0.1774833 0.099472694 -0.18030213 0.08553936 0.10305471 -0.009580055 -0.05455798
0.0074143005 0.010670821 -0.15998705 -0.14026351 -0.015400207 -0.051300053 0.04740587 0.0334371
-0.07658287 -0.2193408 -0.13814354 0.077308014 0.086193 -0.031789824 0.065820836 -0.10547809
-0.120502144 -0.03136779 0.018047258 -0.09449945 -0.02444092 0.02452119 0.07243193 -0.020385854
0.024797475 0.08692804 -0.031211292 0.08211285 -0.13581148 0.08934389 0.15552974 0.038028877
-0.076864004 -0.00492509 0.02927181 -0.088445194 0.04341877 0.076946706 -0.16196041 0.19095856
0.15801746 -0.024917653 0.013674534 -0.0097881025 0.023749297 0.1566236 0.008537796 0.16126199
0.18138646 0.08699763 0.10061695 -0.12792256 -0.15386824 0.19940336 -0.10139282 0.09759797
-0.077890165 -0.022445954 0.13633771 -0.055378 0.06894117 -0.07229322 -0.07630219 0.1328562
0.09205425 -0.049214493 -0.17381075 0.07160888 0.006227654 -0.10818321 0.0051326463 0.004525631
0.04955261 0.0072899 0.0542985 -0.03188264 0.19899854 -0.09886705 -0.008266982 0.10224056
0.1343647 0.05136071 -0.06711198 -0.08825368 -0.016057624 0.014858666 -0.0042407564 -0.014388087
0.019619625 0.08692795 -0.038202405 -0.09254111 -0.0050143357 -0.014211593 -0.14685744 -0.13530955
-0.04696232 0.022026129 0.12318454 -0.0023833176 0.09567175 0.044384055 0.10159144 -0.029038852
-0.06264036 -0.07198449 0.045422405 0.014763068 0.033893827 0.031517003 0.05329688 -0.13842237
-0.20069368 0.050161976 -0.03563814 -0.07930922 -0.036547363 0.05362622 -0.013588818 -0.013470214
-0.02075033 0.17213963 -0.011745779 0.019774245 0.042508204 0.082725905 0.1618041 -0.011248608
-0.047947712 0.17516571 0.006868277 0.020023454 -0.08460931 0.16548239 -0.01129318 0.008750288
0.016541153 -0.11441055 0.114408135 -0.103913076 -0.12188285 -0.10921597 0.022634214 0.0043135523
0.01577634 0.16414289 -0.08877089 0.10472391 -0.09778479 0.035978105 0.06759225 0.061946925
0.03158198 0.13474274 0.013123673 -0.05218599 -0.040864307 0.02948565 -0.21728453 0.015357227
-0.026944458 -0.09516713 -0.13816023 -0.009079249 0.012031287 0.051746003 -0.10366358 0.011836182
-0.18501025 -0.0037103675 -0.0146128815 0.037884273 0.033927683 0.014485756 0.005622298 -0.021094836
0.043981127 0.064005755 -0.02772137 -0.068362854 -0.0474809 -0.022554798 -0.017794657 0.12530237
-0.039916832 -0.0467844 0.20866184 -0.0077966684 0.0050073965 -0.0036113712 -0.11425038 -0.0027044504
0.06362818 0.15333426 0.01956252 0.023102984 0.00922075 -0.036374543 0.065893285 0.014179609
-0.027730158 0.1697485 0.18742478 -0.029423568 0.08224501 0.12990841 0.022951705 0.066182464

network_body._body_endoder.seq_layers.2.bias f4 [128]
00000000: 0000 0000 0000 0000 0000 0000 0000 0000
00000010: 0000 0000 0000 0000 0000 0000 0000 0000
00000020: 0000 0000 0000 0000 0000 0000 0000 0000
00000030: 0000 0000 0000 0000 0000 0000 0000 0000
00000040: 0000 0000 0000 0000 0000 0000 0000 0000
00000050: 0000 0000 0000 0000 0000 0000 0000 0000
00000060: 0000 0000 0000 0000 0000 0000 0000 0000
00000070: 0000 0000 0000 0000 0000 0000 0000 0000
00000080: 0000 0000 0000 0000 0000 0000 0000 0000
00000090: 0000 0000 0000 0000 0000 0000 0000 0000
000000a0: 0000 0000 0000 0000 0000 0000 0000 0000
000000b0: 0000 0000 0000 0000 0000 0000 0000 0000
000000c0: 0000 0000 0000 0000 0000 0000 0000 0000
000000d0: 0000 0000 0000 0000 0000 0000 0000 0000
000000e0: 0000 0000 0000 0000 0000 0000 0000 0000
000000f0: 0000 0000 0000 0000 0000 0000 0000 0000
00000100: 0000 0000 0000 0000 0000 0000 0000 0000
00000110: 0000 0000 0000 0000 0000 0000 0000 0000
00000120: 0000 0000 0000 0000 0000 0000 0000 0000
00000130: 0000 0000 0000 0000 0000 0000 0000 0000
00000140: 0000 0000 0000 0000 0000 0000 0000 0000
00000150: 0000 0000 0000 0000 0000 0000 0000 0000
00000160: 0000 0000 0000 0000 0000 0000 0000 0000
00000170: 0000 0000 0000 0000 0000 0000 0000 0000
00000180: 0000 0000 0000 0000 0000 0000 0000 0000
00000190: 0000 0000 0000 0000 0000 0000 0000 0000
000001a0: 0000 0000 0000 0000 0000 0000 0000 0000
000001b0: 0000 0000 0000 0000 0000 0000 0000 0000
000001c0: 0000 0000 0000 0000 0000 0000 0000 0000
000001d0: 0000 0000 0000 0000 0000 0000 0000 0000
000001e0: 0000 0000 0000 0000 0000 0000 0000 0000
000001f0: 0000 0000 0000 0000 0000 0000 0000 0000
0.0 0.0 0.0 0.0 0.0 0.0 0.0 0.0
0.0 0.0 0.0 0.0 0.0 0.0 0.0 0.0
0.0 0.0 0.0 0.0 0.0 0.0 0.0 0.0
0.0 0.0 0.0 0.0 0.0 0.0 0.0 0.0
0.0 0.0 0.0 0.0 0.0 0.0 0.0 0.0
0.0 0.0 0.0 0.0 0.0 0.0 0.0 0.0
0.0 0.0 0.0 0.0 0.0 0.0 0.0 0.0
0.0 0.0 0.0 0.0 0.0 0.0 0.0 0.0
0.0 0.0 0.0 0.0 0.0 0.0 0.0 0.0
0.0 0.0 0.0 0.0 0.0 0.0 0.0 0.0
0.0 0.0 0.0 0.0 0.0 0.0 0.0 0.0
0.0 0.0 0.0 0.0 0.0 0.0 0.0 0.0
0.0 0.0 0.0 0.0 0.0 0.0 0.0 0.0
0.0 0.0 0.0 0.0 0.0 0.0 0.0 0.0
0.0 0.0 0.0 0.0 0.0 0.0 0.0 0.0
0.0 0.0 0.0 0.0 0.0 0.0 0.0 0.0

action_model._continuous_distribution.log_sigma f4 [1, 5]
00000000: 0000 0000 0000 0000 0000 0000 0000 0000
00000010: 0000 0000
0.0 0.0 0.0 0.0 0.0

action_model._continuous_distribution.mu.weight f4 [5, 128]
00000000: 756e 703c 2b17 0f3c 8369 4cbc 5905 95bc
00000010: 3847 b6bc 421e fe3c 2f9f 8f3c 8308 433b
00000020: 58f3 803c a2e7 edbb f0e9 79bb bff2 ad3b
00000030: 019a 45ba 43fa 743c 104e 633c 04e0 cbbc
00000040: 1b82 863c e2de dabb 78bc f93c 5e03 0e3d
00000050: 3720 f4bb 0017 313b 30e3 653c 226a 303d
00000060: 2d3b 843c d7e4 dfba d87c e23b 9748 23bc
00000070: 5bf2 adbb 9df1 b1bb 93f2 e23c 56aa b73c
00000080: 9dce 723c e440 14bb cf84 283c 1395 1e3c
00000090: 7089 4fbc 842f bb3b 6789 04bd 6d83 93bc
000000a0: 275a f43b da53 d73c cb04 63b9 d6f6 993c
000000b0: fd70 49bc 5b68 c4bb ae77 193b 2f48 5d3c
000000c0: 9b7b 72bc 2628 b23b dbc8 16bc 9a72 a43b
000000d0: dc96 c7bb 55f2 ce3b d5c4 aabb ce4d 993c
000000e0: dedc c9bc 3f6a 103b 2d5b f63a add7 253c
000000f0: a97c a53b 5ad5 cebb 6f23 0fbc f27d 57ba
00000100: 825d 7c3b 9f59 47bb da76 4f3b cd75 5d3c
00000110: ef8f cbbb 9d60 f43b 73e4 9ebc 80c9 ac3c
00000120: 0b8f 7c3c c8e0 f73b 0db0 a23c 0771 5bbc
00000130: 5ac1 51ba dae2 183c 610b 4b3d 8508 ce3c
00000140: 6894 ddbb ec77 ad3c b7b3 b8bb 500b b63a
00000150: afa5 403c dbd0 103c 2846 4ebc a2fe 593d
00000160: a55f ba3b 3bf3 313b a4ab 2c3c 7acd 6d3b
00000170: 1b37 333c 33fc 273c a423 05bd 6af4 d1bc
00000180: 282a 25bd 1028 d0bc f72b 85bc 70c4 a63b
00000190: 9142 bdbc 8bf8 c9bc 73eb bd3b d4ed 013d
000001a0: 3569 5aba 8bdd 88bb cc96 313d da92 bd3b
000001b0: 8b8e 823c 3b20 8dbc 917f bb3c 7348 483c
000001c0: cb63 ba3c 16b9 8639 2cbe 803a 6559 abba
000001d0: 83f4 2fba cb9e b43a 3fbe 3abc b5f0 79bc
000001e0: 041c 04bb 26e0 bdbc 3a9f eebc c2b9 e43c
000001f0: 4d25 45bd 0bf6 00bb eff2 9a3c 8f00 fe3c
00000200: 5883 403c 537b 83bc 0acb 20bb 151a 0f3d
00000210: 6723 9e3b a964 1abc 52eb 423c 9742 8d3c
00000220: 776f 873c dd15 fdbb 02a2 893c 4775 903b
00000230: 672e 673c 4cb5 8cbc 8257 8e3a 7f21 b03c
00000240: e6f7 4bbc 23cf 73bc d0a2 d5ba acfe 2f3c
00000250: 69f6 483c e588 a8bc 73ce 5b3c 8253 a2bc
00000260: efc3 d439 80d0 e0bc 884a 6d3a 9475 96bb
00000270: 2b33 92bb 8ba1 08bc 0558 b9bc 69d5 a93c
00000280: 08c0 dabb 108b 1fbc eb57 40bb 9f11 5f3a
00000290: 2451 81bc b097 b43c e478 2d3c 757f b83b
000002a0: 7c06 02bd 4325 993c 3154 12bb 2f96 223c
000002b0: c109 0b3b 170c 0dbd 8882 b13b 8e7b 84bc
000002c0: 9a63 e83b 2bc6 c0ba 3f72 673b 5d08 713c
000002d0: e36a c739 c19d a6bb 0a00 ebbc 07fa 8f3b
000002e0: f932 1c3c 07f1 e4bc e9d3 a3bb 9df1 f33b
000002f0: d36c b8bb 4607 183d eedd 353c 1df0 a93c
00000300: 0a0a ff3c 06b6 953c 04fe 90bc d0e2 fcbb
00000310: 3348 66bc df3a 8ebb 7ff0 34bc 4f1b 04bc
00000320: 0f07 53bc 3630 a3bc 5a11 a0bc f205 d6bc
00000330: 1b44 d3bc d654 a9ba 58b3 d53b 55be 51bc
00000340: a5d4 6cbc 292b 9bbb 7b05 a0bc 8e86 aebc
00000350: 692b 243c 935d 2e3d 1f69 643a a20a 083c
00000360: b3ba ae3b 4774 ab3c b210 003c cde9 9a3c
00000370: 703e ef3b 3ff9 c33c 34db 8e3c 6fcd 0c3c
00000380: 9b67 c7b9 6225 89bc 79f3 033b 8bd6 03bc
00000390: f3a9 0b3b 83da 853c 4b75 4e3c 9e22 c7bc
000003a0: 5a0c dfba 500a 5dbc 284a 603c 47bc a7ba
000003b0: 4b73 133b e2a5 dbbb 4f76 26b9 2ac3 0abc
000003c0: ca2e e2ba b1d6 233d e4f2 03bd b321 df3c
000003d0: 5708 c3ba a713 ddbb 1fc3 333c 776d a0bc
000003e0: f582 bbbc 13e6 46bc 4314 8cbc 21bd 40bc
000003f0: 58cf 10bd cd2f f139 5357 46bc 0a77 b9bc
0.0146747725 0.008733551 -0.012476328 -0.018191027 -0.022250757 0.031020287 0.01753196 0.0029759712
0.015741035 -0.007260279 -0.0038133822 0.0053084786 -0.0007537902 0.014952245 0.013873592 -0.024887092
0.016419461 -0.0066794017 0.030485377 0.03467118 -0.0074501294 0.0027021766 0.0140312165 0.043069966
0.016141498 -0.0017081749 0.006911855 -0.009966037 -0.005308432 -0.005430414 0.027703559 0.02242009
0.014819768 -0.0022621686 0.01028557 0.009679097 -0.012667045 0.0057124514 -0.0323576 -0.018007005
0.007457036 0.0262851 -0.00021650193 0.018794458 -0.012295005 -0.0059938855 0.0023417282 0.013505979
-0.014799978 0.005436915 -0.009203161 0.0050185444 -0.006090982 0.0063155093 -0.0052114525 0.018713858
-0.02464145 0.0022035984 0.0018795483 0.010122222 0.005050261 -0.0063120546 -0.008736475 -0.00082203664
0.0038507883 -0.0030418409 0.0031656534 0.013516855 -0.0062122266 0.0074578063 -0.019396042 0.021092176
0.0154149635 0.007564638 0.019859338 -0.013393647 -0.0008001529 0.009331429 0.0495714 0.025150547
-0.006762076 0.021175347 -0.005636658 0.001388887 0.011758252 0.0088388575 -0.012589969 0.053221352
0.0056876712 0.0027153033 0.010538969 0.0036285804 0.010938431 0.010253 -0.032504693 -0.025629241
-0.040323406 -0.025409728 -0.016256316 0.005089335 -0.02310303 -0.024654647 0.00579589 0.03172095
-0.0008331717 -0.0041768006 0.0433567 0.0057853283 0.01593711 -0.017227283 0.022887977 0.0122243045
0.022752663 0.0002569637 0.0009822301 -0.0013072906 -0.00067121553 0.0013780234 -0.011397897 -0.015255143
-0.00201583 -0.023178171 -0.02912866 0.027920607 -0.048131276 -0.0019677903 0.018914668 0.031006126
0.011750065 -0.016050017 -0.0024535083 0.034936983 0.0048259976 -0.009423413 0.011896925 0.017243667
0.016532643 -0.0077235536 0.016800884 0.004408512 0.014110184 -0.017176293 0.001085982 0.021500347
-0.01244924 -0.014880928 -0.0016299132 0.010741871 0.01226578 -0.020573089 0.013415921 -0.01981521
0.00040581773 -0.02744317 0.00090519385 -0.004591653 -0.004461666 -0.008339296 -0.022624979 0.020731645
-0.006675724 -0.009737745 -0.0029349278 0.00085094006 -0.015785761 0.022044986 0.010587905 0.0056304284
-0.031744465 0.018694526 -0.0022328014 0.009923502 0.002121553 -0.034435358 0.005417172 -0.016172197
0.0070919516 -0.0014707496 0.0035315899 0.014711467 0.00038035875 -0.0050847237 -0.028686542 0.0043938193
0.009533637 -0.027946962 -0.004999627 0.007444574 -0.005628207 0.03711631 0.011100275 0.020744378
0.031132717 0.018275272 -0.01769925 -0.007717468 -0.0140553 -0.004340514 -0.011043667 -0.0080631515
-0.012880101 -0.01992045 -0.019539524 -0.026125882 -0.025789311 -0.001291896 0.0065216236 -0.012801726
-0.014454995 -0.0047353697 -0.019533863 -0.021304395 0.010020115 0.042569708 0.0008713174 0.008303316
0.005332315 0.020929469 0.0078164805 0.018910313 0.0073011443 0.02392256 0.017438509 0.008593901
-0.0003803343 -0.016741458 0.0020134135 -0.0080467565 0.0021311014 0.016339546 0.012601207 -0.024308499
-0.0017017231 -0.013491228 0.013689555 -0.00127972 0.002249914 -0.0067031244 -0.00015875067 -0.008469382
-0.0017256376 0.039999668 -0.03221406 0.027237749 -0.0014879805 -0.0067467275 0.010971813 -0.019583447
-0.022889594 -0.012139815 -0.017099505 -0.011763842 -0.03535399 0.00046002716 -0.012105781 -0.02263977

action_model._continuous_distribution.mu.bias f4 [5]
00000000: 0000 0000 0000 0000 0000 0000 0000 0000
00000010: 0000 0000
0.0 0.0 0.0 0.0 0.0

network_body._body_endoder.seq_layers.0.weight f4 [128, 1]
00000000: a015 90be 9e06 c4bf 7278 dabf 1c83 91bf
00000010: 61ff 423f b6eb 123f 445e 783f 1c70 913d
00000020: fc72 f13d f19f b33f dc4f 643f 0604 86bf
00000030: 97ce 883f ee09 973f cbf8 d63e 47b1 b4be
00000040: 90d4 863f 549f 4f3f 6ce0 893e d7da b53f
00000050: 00c8 88bf ce4e 013f 0e7f 03c0 6325 1240
00000060: a67e 85be 29b2 8e3d 359f 62bf dfc0 d53f
00000070: 75f8 973f db99 e1bf 5546 6d3f 3a78 193c
00000080: 6271 f13e 0db7 8bbf d56f 613f c98c 65be
00000090: cb02 d43d 5410 af3d 64b4 b13e c189 06bf
000000a0: 3fef 803e 314a 0dc0 691c 96bd b581 8a3e
000000b0: 75ef 82bf a237 79be 9f11 903f dec5 843f
000000c0: c9a4 0c40 69be 883d c16d 93bf afbd 8fbf
000000d0: da79 4e3f f81d 843e 0d93 1ebd 66fb d73e
000000e0: 3fa3 743f 486f ed3e 3371 6c3f 3374 21bd
000000f0: 12fb 92bf 0820 c3be a067 30bf fac6 edbe
00000100: bdfa 52bf c51f 31bf 63cb 433f 8ff7 82bf
00000110: cc52 dcbe 1d34 06bf aa60 2a3f 8915 c53e
00000120: 096e 62bf d5ce a7be 5e9c 0ebf 51ee 0fbf
00000130: d56c 7e3e cdf5 12be 634a 863f 73c3 c7bc
00000140: 0778 3c3e be95 b53e e1c6 dd3f 3bc5 a4be
00000150: 2b04 dabe bf44 80bf 9aec 523f 9b06 e0be
00000160: a58c cebe 9980 5a3f 87af d13f 4f15 1d40
00000170: 1fb1 4f3e 6342 ae3f d1f0 a0bf a5cc 2d40
00000180: 94f8 4ebf 5739 cdbf c9f2 853f d7a5 d5bf
00000190: 32ab 87bf 09f7 82bf 19a7 c7be cf61 08c0
000001a0: 6af5 bfbf f6b1 36c0 a677 0940 9c76 043f
000001b0: 3b03 1dbe d1b4 a2bf 3341 87be 615a 513d
000001c0: 8057 60bf bf94 2a3f 3244 1e3f 5ed9 2c3f
000001d0: 5681 523e 4427 92bf a7b0 28bf 0e6e 0640
000001e0: bd99 43bf 2f4c b23e 4769 6f3f 3373 973f
000001f0: 32b8 863e 3e03 653f 8d3e f33f e8ac 333f
-0.281415 -1.531452 -1.7068007 -1.1368136 0.7617093 0.57390916 0.9701884 0.07101461
0.1178951 1.4033185 0.89184356 -1.0469978 1.0688046 1.1799905 0.4198669 -0.35291502
1.0533619 0.8110249 0.26929033 1.420741 -1.0686035 0.5051087 -2.0546298 2.283532
-0.26073188 0.06967575 -0.8852418 1.6699485 1.1872698 -1.7625078 0.92685443 0.009367043
0.47156817 -1.0915238 0.8806127 -0.22416987 0.10352095 0.08548036 0.3470794 -0.52553946
0.2518253 -2.2076533 -0.073296376 0.27052084 -1.0229326 -0.24337628 1.1255378 1.0372884
2.1975577 0.06676943 -1.1517869 -1.1229762 0.8065468 0.25804114 -0.038714457 0.4218399
0.95561594 0.46373963 0.9236023 -0.039417457 -1.148287 -0.38110375 -0.6890812 -0.4644087
-0.82413846 -0.691891 0.7648222 -1.0231799 -0.4303192 -0.5242327 0.6655375 0.38492993
-0.8844915 -0.32774988 -0.5570735 -0.56223017 0.24846204 -0.14351578 1.0491451 -0.02438519
0.18405162 0.35465807 1.7326318 -0.32181725 -0.42581305 -1.002098 0.82392275 -0.4375504
-0.40341678 0.85352474 1.6381692 2.4544256 0.2028241 1.361401 -1.2573491 2.7156155
-0.8084805 -1.6033124 1.0464717 -1.6691235 -1.059912 -1.0231639 -0.38994673 -2.1309698
-1.499677 -2.8546119 2.1479278 0.51743484 -0.15333264 -1.2711431 -0.2641693 0.051111583
-0.87633514 0.6663322 0.6182281 0.67519176 0.2055715 -1.1418233 -0.6589455 2.1004672
-0.7640646 0.34823748 0.93520015 1.1832031 0.26312405 0.8945807 1.9003464 0.7018571

network_body._body_endoder.seq_layers.0.bias f4 [128]
00000000: 0000 0000 0000 0000 0000 0000 0000 0000
00000010: 0000 0000 0000 0000 0000 0000 0000 0000
00000020: 0000 0000 0000 0000 0000 0000 0000 0000
00000030: 0000 0000 0000 0000 0000 0000 0000 0000
00000040: 0000 0000 0000 0000 0000 0000 0000 0000
00000050: 0000 0000 0000 0000 0000 0000 0000 0000
00000060: 0000 0000 0000 0000 0000 0000 0000 0000
00000070: 0000 0000 0000 0000 0000 0000 0000 0000
00000080: 0000 0000 0000 0000 0000 0000 0000 0000
00000090: 0000 0000 0000 0000 0000 0000 0000 0000
000000a0: 0000 0000 0000 0000 0000 0000 0000 0000
000000b0: 0000 0000 0000 0000 0000 0000 0000 0000
000000c0: 0000 0000 0000 0000 0000 0000 0000 0000
000000d0: 0000 0000 0000 0000 0000 0000 0000 0000
000000e0: 0000 0000 0000 0000 0000 0000 0000 0000
000000f0: 0000 0000 0000 0000 0000 0000 0000 0000
00000100: 0000 0000 0000 0000 0000 0000 0000 0000
00000110: 0000 0000 0000 0000 0000 0000 0000 0000
00000120: 0000 0000 0000 0000 0000 0000 0000 0000
00000130: 0000 0000 0000 0000 0000 0000 0000 0000
00000140: 0000 0000 0000 0000 0000 0000 0000 0000
00000150: 0000 0000 0000 0000 0000 0000 0000 0000
00000160: 0000 0000 0000 0000 0000 0000 0000 0000
00000170: 0000 0000 0000 0000 0000 0000 0000 0000
00000180: 0000 0000 0000 0000 0000 0000 0000 0000
00000190: 0000 0000 0000 0000 0000 0000 0000 0000
000001a0: 0000 0000 0000 0000 0000 0000 0000 0000
000001b0: 0000 0000 0000 0000 0000 0000 0000 0000
000001c0: 0000 0000 0000 0000 0000 0000 0000 0000
000001d0: 0000 0000 0000 0000 0000 0000 0000 0000
000001e0: 0000 0000 0000 0000 0000 0000 0000 0000
000001f0: 0000 0000 0000 0000 0000 0000 0000 0000
0.0 0.0 0.0 0.0 0.0 0.0 0.0 0.0
0.0 0.0 0.0 0.0 0.0 0.0 0.0 0.0
0.0 0.0 0.0 0.0 0.0 0.0 0.0 0.0
0.0 0.0 0.0 0.0 0.0 0.0 0.0 0.0
0.0 0.0 0.0 0.0 0.0 0.0 0.0 0.0
0.0 0.0 0.0 0.0 0.0 0.0 0.0 0.0
0.0 0.0 0.0 0.0 0.0 0.0 0.0 0.0
0.0 0.0 0.0 0.0 0.0 0.0 0.0 0.0
0.0 0.0 0.0 0.0 0.0 0.0 0.0 0.0
0.0 0.0 0.0 0.0 0.0 0.0 0.0 0.0
0.0 0.0 0.0 0.0 0.0 0.0 0.0 0.0
0.0 0.0 0.0 0.0 0.0 0.0 0.0 0.0
0.0 0.0 0.0 0.0 0.0 0.0 0.0 0.0
0.0 0.0 0.0 0.0 0.0 0.0 0.0 0.0
0.0 0.0 0.0 0.0 0.0 0.0 0.0 0.0
0.0 0.0 0.0 0.0 0.0 0.0 0.0 0.0

network_body._body_endoder.seq_layers.2.weight f4 [128, 128]
00000000: 4e1b a6bd 78a8 843d 6eda a6bd 620d 52bd
00000010: a402 463d e1d8 12bd 87ec 27ba 9e2c 403d
00000020: 594c f9bd d9c4 653d 7a66 433d 8f02 7d3d
00000030: 59de 853c a493 983c add6 eb3c 18b6 593e
00000040: a5a8 713b 52cf 023e a5cb fc3c c4a7 813d
00000050: 5d93 89bd 017b f5bc 9a3d 73bd b62e 173e
00000060: 359d d43d 20c0 bab9 1a9b fb3d c147 96bd
00000070: 3fbe d53c 902b 86bc cd17 a53c d5ef 3a3d
00000080: 0584 153e ebcf 873d 6f52 703d 2074 4ebb
00000090: 4f82 11bd 3e7a 343c 741d 0c3d e5f8 1f3c
000000a0: 3abb 163e eaad 1e3e 1fc3 43be 6427 2e3d
000000b0: 5368 b63d c630 85bd 08fa babd 267a 9a3b
000000c0: ab1b cf3c 5181 83bc 5e02 70bc 8085 2abe
000000d0: e2b7 c1bd 4a7a f33b ae47 cfbd 299a db3d
000000e0: 106f b2bd 3f9b 433e 81ba c9bd 1d6b a43d
000000f0: 2444 89be 54d7 dc3b 6204 0f3d c422 d33a
00000100: 5404 0bbe 7755 22be 3115 2bbc 4823 15bd
00000110: 6c57 e0bd 7d55 b43c 47dd cfbd d73a 65bd
00000120: 7a44 873d f876 a03b cedc 1ebb 91d0 5a3d
00000130: 3e4d fe3c 0a94 1e3e e6fc bc3d b8fc 64bd
00000140: f61c 1b3c 7b75 2b3e d6b5 2dbb c300 ecbd
00000150: 2208 d33d a76c f23d c049 3c3c 34ae b2bc
00000160: 6d67 95bc 5b90 733c 1c56 ec3d 385e 3abe
00000170: c132 a0bd b82a 053e 59e8 6b3c 5d38 253e
00000180: 8a56 75bd ee38 9bbc 396f eebd 75bc e6bd
00000190: 0d52 963c 7d07 dc3d d06e 0ebe 08a2 dd3d
000001a0: d1f1 92bd 14ff df3c c8af e1bd 1d3e 13bd
000001b0: 6350 3dbe fba2 2a3c 2cfc 063d 7a15 0cbe
000001c0: 3730 1bbd c5af d83c f567 0a3d beb5 f0bd
000001d0: 701a 023d b292 89bd 1ca7 8abd 140c e9bd
000001e0: a841 8ebd 6cdc 163e 8fcc 95bd bb49 a13d
000001f0: b778 963d b217 2f3e 967a 563d dd11 dcbd
00000200: af69 a63d d949 42bd 124c 8e3d 8630 a23d
00000210: 3bd2 883c 778a 253b 50d6 53bd 223c 713d
00000220: 557e 9dbc 9c21 493d a422 513c 9fb9 893d
00000230: f4d4 09bc 5886 623d 5535 3e3e badb 5a3c
00000240: f687 c8ba e7f5 52be cb92 7cbd 091f 943c
00000250: ff94 4b3d e88c 9f3d 47ce fe3d 362d 11bd
00000260: 6c29 823d 5e11 f5bc b14c 033e 5f8c 8c3d
00000270: 341c 993d 1103 8abd 06be 813d c721 313e
00000280: e4ac 6fbd 82bf 313e b306 913d c507 05be
00000290: b1c0 e3bd 8297 8a3d 623e 26bd 504e 5f3d
000002a0: 9f8a f0bc 3bc7 343c 37d9 aa3c 71fa 2ebe
000002b0: 8dd2 7dbc 3b97 0abe 3c9d dabc 3ea5 c8bc
000002c0: afab 513d 2f50 483d c2ad d1bc 4131 e13c
000002d0: bcf6 1e3c 3257 233d 7f51 a3bc 9347 05be
000002e0: 03e4 8d3d e72e a13d bc20 923d 5777 38be
000002f0: 0443 e7bd b672 35bd 86be 863d ca7f c1bd
00000300: be6a 7f3d 6f03 a13d e078 99bc a71c 30bd
00000310: 03fc bebd 0f33 b23c e833 003e 75f9 ab3c
00000320: 8ef8 c0bb ad89 653d 9e73 4cbb 63f2 fb3d
00000330: 83b2 f23d 41e5 1e3b 48e1 42bd 8d17 5f3c
00000340: f005 abbd ba6a fabb bf52 d43d 8d62 a13d
00000350: 2263 b7bd 32b6 e13a 1282 243d 962c 64be
00000360: c859 bf3d dc72 2b3e d9b5 9d3d a1b6 b23c
00000370: 7bd6 843d 0f72 0a3d e64f b8bd bddc 503d
00000380: 3151 163e 785c edbc 8fd7 07bd cff5 83bc
00000390: 8598 e13d b268 90bc 1c80 f3bc 0232 223b
000003a0: e311 8a3c 79ee f13c d70e d63c a9d3 9bbd
000003b0: 837b edbb 5727 84bd 7265 00bd 246f 9d3d
000003c0: d696 41be fa24 133e a645 47bd fc8d 223e
000003d0: bd23 e0bd 98d9 0d3d cee7 b93c 1cb1 cfbd
000003e0: 8b9b 0f3d b3f3 2a3e e4df 8bbd 9ed9 93bd
000003f0: 7c79 96bd 2b53 e2bc fc67 b4bd 12b5 233e
-0.08110677 0.06477445 -0.08147131 -0.051282294 0.048342362 -0.035851363 -0.000640579 0.04691755
-0.12172765 0.05609593 0.04770515 0.06177002 0.016341375 0.018625088 0.028788889 0.2126087
0.0036874202 0.12774399 0.030858824 0.06330827 -0.067175604 -0.02996588 -0.05938492 0.14763913
0.10381547 -0.0003561983 0.12285443 -0.07337905 0.026091693 -0.016378194 0.02015295 0.045638878
0.14601143 0.06631454 0.058672365 -0.0031502321 -0.035524663 0.011015473 0.034207776 0.009763931
0.14719859 0.1549603 -0.19117402 0.042518035 0.08906617 -0.065034434 -0.09129721 0.0047142683
0.025281748 -0.016052874 -0.014649002 -0.16652489 -0.09458901 0.0074303495 -0.10121094 0.10722763
-0.0871259 0.1910219 -0.09850026 0.08028243 -0.268098 0.0067395363 0.03491629 0.0016108383
-0.1357587 -0.15852915 -0.010442064 -0.0364106 -0.109541744 0.02201342 -0.10149627 -0.055964317
0.06604858 0.0048969947 -0.0024240497 0.05342156 0.031042691 0.1548616 0.09227924 -0.055905074
0.009467354 0.16744034 -0.0026506088 -0.11523583 0.103042856 0.1183713 0.011492193 -0.021811582
-0.018237794 0.01486596 0.115398616 -0.18200004 -0.078221805 0.13004577 0.014398658 0.16134782
-0.059896983 -0.018948045 -0.11642308 -0.11266414 0.018349672 0.10743616 -0.13909459 0.10821921
-0.07175029 0.02734331 -0.11019856 -0.035947908 -0.18487696 0.010414834 0.032955334 -0.13680068
-0.037887778 0.026451001 0.033790547 -0.117534146 0.031763494 -0.06717433 -0.06770155 -0.11379257
-0.06946117 0.14732522 -0.07314407 0.07875391 0.07347243 0.17098883 0.052363 -0.10745595
0.08125626 -0.047433708 0.06948103 0.07919411 0.016701808 0.0025259533 -0.051718056 0.058895238
-0.019225279 0.049104318 0.012764607 0.067248575 -0.008412588 0.0553039 0.18575032 0.013358051
-0.0015299309 -0.20601617 -0.06166343 0.018081205 0.04970264 0.077905476 0.12441688 -0.035443507
0.06355557 -0.029915508 0.12822224 0.06862711 0.074760824 -0.06738866 0.06335072 0.17298041
-0.05851449 0.1735821 0.07081356 -0.12991245 -0.11120737 0.06767179 -0.040586837 0.054518044
-0.029362975 0.011033828 0.02085553 -0.17087723 -0.015492094 -0.13534252 -0.026686303 -0.024492856
0.05118912 0.048904594 -0.02559555 0.027489306 0.009702381 0.039878078 -0.019936321 -0.13015585
0.069282554 0.07870274 0.0713515 -0.18014275 -0.11292079 -0.04429885 0.06579308 -0.09448202
0.062357657 0.07861983 -0.018734396 -0.042996075 -0.09325411 0.021752862 0.125198 0.020992974
-0.005889005 0.0560395 -0.0031196843 0.12302091 0.11850455 0.0024245533 -0.047578126 0.013616455
-0.08350742 -0.0076421173 0.10367345 0.07880125 -0.08954455 0.0017220436 0.040163107 -0.22282633
0.09343296 0.16743034 0.077007 0.0218156 0.064862214 0.03380018 -0.089996144 0.050991762
0.1467941 -0.028974757 -0.033164557 -0.016108422 0.11015419 -0.017628048 -0.029724173 0.0024749045
0.016854232 0.029532658 0.026130123 -0.0760873 -0.0072473898 -0.06452816 -0.031346746 0.07687214
-0.18905196 0.14369574 -0.048650406 0.15874475 -0.109443165 0.03463134 0.02269354 -0.10141203
0.035060447 0.16694526 -0.06829813 -0.072192416 -0.0734739 -0.027627548 -0.08808896 0.15987042

network_body._body_endoder.seq_layers.2.bias f4 [128]
00000000: 0000 0000 0000 0000 0000 0000 0000 0000
00000010: 0000 0000 0000 0000 0000 0000 0000 0000
00000020: 0000 0000 0000 0000 0000 0000 0000 0000
00000030: 0000 0000 0000 0000 0000 0000 0000 0000
00000040: 0000 0000 0000 0000 0000 0000 0000 0000
00000050: 0000 0000 0000 0000 0000 0000 0000 0000
00000060: 0000 0000 0000 0000 0000 0000 0000 0000
00000070: 0000 0000 0000 0000 0000 0000 0000 0000
00000080: 0000 0000 0000 0000 0000 0000 0000 0000
00000090: 0000 0000 0000 0000 0000 0000 0000 0000
000000a0: 0000 0000 0000 0000 0000 0000 0000 0000
000000b0: 0000 0000 0000 0000 0000 0000 0000 0000
000000c0: 0000 0000 0000 0000 0000 0000 0000 0000
000000d0: 0000 0000 0000 0000 0000 0000 0000 0000
000000e0: 0000 0000 0000 0000 0000 0000 0000 0000
000000f0: 0000 0000 0000 0000 0000 0000 0000 0000
00000100: 0000 0000 0000 0000 0000 0000 0000 0000
00000110: 0000 0000 0000 0000 0000 0000 0000 0000
00000120: 0000 0000 0000 0000 0000 0000 0000 0000
00000130: 0000 0000 0000 0000 0000 0000 0000 0000
00000140: 0000 0000 0000 0000 0000 0000 0000 0000
00000150: 0000 0000 0000 0000 0000 0000 0000 0000
00000160: 0000 0000 0000 0000 0000 0000 0000 0000
00000170: 0000 0000 0000 0000 0000 0000 0000 0000
00000180: 0000 0000 0000 0000 0000 0000 0000 0000
00000190: 0000 0000 0000 0000 0000 0000 0000 0000
000001a0: 0000 0000 0000 0000 0000 0000 0000 0000
000001b0: 0000 0000 0000 0000 0000 0000 0000 0000
000001c0: 0000 0000 0000 0000 0000 0000 0000 0000
000001d0: 0000 0000 0000 0000 0000 0000 0000 0000
000001e0: 0000 0000 0000 0000 0000 0000 0000 0000
000001f0: 0000 0000 0000 0000 0000 0000 0000 0000
0.0 0.0 0.0 0.0 0.0 0.0 0.0 0.0
0.0 0.0 0.0 0.0 0.0 0.0 0.0 0.0
0.0 0.0 0.0 0.0 0.0 0.0 0.0 0.0
0.0 0.0 0.0 0.0 0.0 0.0 0.0 0.0
0.0 0.0 0.0 0.0 0.0 0.0 0.0 0.0
0.0 0.0 0.0 0.0 0.0 0.0 0.0 0.0
0.0 0.0 0.0 0.0 0.0 0.0 0.0 0.0
0.0 0.0 0.0 0.0 0.0 0.0 0.0 0.0
0.0 0.0 0.0 0.0 0.0 0.0 0.0 0.0
0.0 0.0 0.0 0.0 0.0 0.0 0.0 0.0
0.0 0.0 0.0 0.0 0.0 0.0 0.0 0.0
0.0 0.0 0.0 0.0 0.0 0.0 0.0 0.0
0.0 0.0 0.0 0.0 0.0 0.0 0.0 0.0
0.0 0.0 0.0 0.0 0.0 0.0 0.0 0.0
0.0 0.0 0.0 0.0 0.0 0.0 0.0 0.0
0.0 0.0 0.0 0.0 0.0 0.0 0.0 0.0

value_heads.value_heads.extrinsic.weight f4 [1, 128]
00000000: f6cb 85bd 3490 89bd ca3c 2c3e 2870 30be
00000010: 00d4 a33d 8651 b2bd 0422 22bd 8e82 abbd
00000020: 64cc 0ebd f096 a93c 3019 4cbc 200d 0ebd
00000030: 96ce 013e c884 d73d 2872 e73d f706 47be
00000040: 28cd 143d e6f7 b9bd 6011 8fbd 1eaf 18be
00000050: 387e 1ebe 66c6 13be c9f2 dbbd 4a9b 0c3e
00000060: 1f4b 1cbe 5c22 323e 348d a23d 9cbf 033e
00000070: ac58 2b3e d0c1 313d ec5d 513e 1dee 50be
00000080: 2bc4 36be 709f b73d 58f7 903d 88d7 773d
00000090: c096 5c3c 5606 1e3e 5765 f2bd 48eb 5a3d
000000a0: e8f0 d9bc 746a 6fbd 16c4 063e 7c0d 2f3e
000000b0: 8016 1ebc 744b c93d a4ca cd3d 1859 bd3c
000000c0: d4c8 893d 60f9 133e 89bc 46be 6ea8 41be
000000d0: 2054 aebb c648 043e 6c62 be3d 00fa 4ebc
000000e0: 2069 aebc 7eb0 95bd 161c 463e 06d8 4dbe
000000f0: 72ff c2bd 60d7 603d e0d7 e33d 3ecd 8bbd
00000100: 9c59 a03d e45f 3ebd fcb0 cb3d a84d 70bd
00000110: 549d d13d dc21 ff3d d157 bdbd 0090 1fbb
00000120: ec4e 1c3e 269f c2bd 3ea1 353e db5b 1cbe
00000130: 74ce fd3d 0efc 37be f476 9e3d 33fd efbd
00000140: 389e 1c3e 060b 50be 78f5 223d 2677 0f3e
00000150: 344c a63d 08e5 2d3e 0f40 c9bd d0b4 45bc
00000160: 143e 40be 80ce 28bc 16af 8bbd f627 ecbd
00000170: 64ef 41be 1269 29be 33d3 c6bd 4853 05bd
00000180: b883 333e 2ee0 483e 2ff1 e5bd aaac 203e
00000190: 71ed 1ebe 9ca5 93bd f2d9 e5bd 366f 093e
000001a0: 6e24 0ebe 8067 e83d e2db 07be 488e 563d
000001b0: 405b b8bd 580e 6e3d b65b 94bd 582f 2f3d
000001c0: 6ebd 93bd e0ca fd3d 4444 b53d e271 173e
000001d0: efcf 58be 9230 4a3e 70b0 e7bc 003f 0dbe
000001e0: d831 b8bd f019 4dbc 7845 363e d4be e73d
000001f0: 40e4 4e3e 9814 9fbd 58e8 d63c e8df 193d
-0.06533043 -0.06716958 0.16820064 -0.17230284 0.0799942 -0.087069556 -0.03958322 -0.08374511
-0.03486289 0.020701855 -0.012457177 -0.034680486 0.12676463 0.10523373 0.113010705 -0.1943625
0.036328465 -0.09080486 -0.06985736 -0.14910552 -0.15477836 -0.14431152 -0.10739667 0.13731113
-0.15263031 0.1739592 0.079370886 0.12866062 0.16733044 0.043397725 0.20445985 -0.20403333
-0.1784827 0.08965957 0.07078427 0.06050828 0.013463676 0.15432104 -0.11835735 0.053447038
-0.02660413 -0.05845113 0.13160738 0.17094988 -0.009648919 0.09828845 0.10048416 0.023113772
0.06727758 0.14450598 -0.19407858 -0.18911907 -0.005320087 0.12918386 0.09296116 -0.012632847
-0.021290362 -0.07309054 0.19346651 -0.20101938 -0.095213786 0.054892898 0.11125159 -0.06826256
0.07829592 -0.046478167 0.099458665 -0.05866781 0.10235086 0.1245763 -0.09245265 -0.0024347305
0.15264481 -0.095030114 0.1773729 -0.15269415 0.123928934 -0.17967245 0.07737532 -0.11718216
0.1529473 -0.20316705 0.03978488 0.14010295 0.08120003 0.169819 -0.09826671 -0.012067035
-0.18773681 -0.01030314 -0.06820504 -0.115310594 -0.18938977 -0.16543987 -0.09708252 -0.032550126
0.17530715 0.19616768 -0.11227643 0.15690866 -0.15520264 -0.07209322 -0.112232104 0.1342133
-0.13881084 0.11347866 -0.13267472 0.052381784 -0.090017796 0.058119148 -0.07244055 0.04276976
-0.07213865 0.12392211 0.08850911 0.14789537 -0.2117307 0.1974509 -0.028282374 -0.13793564
-0.08993882 -0.012518391 0.17799938 0.113156945 0.20204258 -0.077676 0.026233837 0.03756705
