results/ppo/ReachTarget.onnx (onnx, 71603 bytes, 6 tensors)

network_body._body_endoder.seq_layers.0.weight f4 [128, 1]
000000 b2 a2 3e 3f 21 fa 83 3f 59 2f 2a 3f a9 64 81 be
       0.74467003 1.0310708 0.66478497 -0.2527211
000010 86 ac 27 bf 52 f5 9c 3e 7d 83 81 3d 99 b9 a7 3f
       -0.65497625 0.30655915 0.063239075 1.3103515
000020 43 b6 3a 3f fc d6 b5 3d 3c f1 1c bf 6e ee 05 be
       0.7293436 0.08878896 -0.61305594 -0.13079235
000030 f5 60 bc bf 4a 49 ec bf c4 74 57 3e 5d 24 83 3e
       -1.4717089 -1.8459866 0.21040636 0.2561368
000040 ae 84 9a bf 0d a6 a1 bf 31 01 d0 bf ba 58 ab 3f
       -1.2071741 -1.26288 -1.6250364 1.3386452
000050 da 10 e3 3f 91 34 ba be ea 6d 4c 3f 8b 5a 76 bf
       1.7739518 -0.3636823 0.79855216 -0.9623191
000060 b4 0a 2f bd 2a 89 c5 3f 2e 14 20 3f 7c e0 cf 3f
       -0.042734817 1.5432484 0.6253079 1.6240382
000070 c6 9b 84 3f b6 a7 89 3f 56 65 a9 3f c3 cb 43 be
       1.0360038 1.0754306 1.323405 -0.19120698
000080 3c 98 03 c0 c1 18 f8 be fa 63 c1 bd 88 f8 c9 3e
       -2.0561666 -0.48456386 -0.09442897 0.39447427
000090 f2 76 97 3f da 47 9a bf f4 d2 82 3f d8 7c e5 bf
       1.1833174 -1.2053177 1.0220628 -1.7928724
0000a0 26 00 da be 3d 25 3d bf 20 d0 91 3e 5e 4d 48 bd
       -0.42578238 -0.73884946 0.284791 -0.048901908
0000b0 27 3c 17 c0 ab b6 48 3e 77 59 28 40 14 29 f9 3e
       -2.3630464 0.19600932 2.6304605 0.48664153
0000c0 04 5e 76 bf bf a4 62 3f 73 c0 79 3e 93 f4 cb 3b
       -0.96237206 0.8853263 0.2438982 0.006224224
0000d0 34 43 89 be 38 89 89 3f b9 89 d2 bf d1 72 84 3f
       -0.26809084 1.0745001 -1.644828 1.0347539
0000e0 2a 21 0a 3f 90 52 15 3f a8 26 d7 be 8e 65 98 3f
       0.53956854 0.58329105 -0.4202168 1.1905992
0000f0 a7 95 38 bf 26 12 30 c0 f9 fc bd bc db 7d 97 bd
       -0.7210335 -2.7511077 -0.023191916 -0.07397052
000100 7a 28 9e bf f2 20 b2 bf d9 04 06 bf ba 96 2c 3e
       -1.2356102 -1.3916304 -0.52351147 0.16854373
000110 de 25 6b be 26 13 81 3f 14 7c 0e 3f b6 20 bd 3f
       -0.22963664 1.0083969 0.5565808 1.4775608
000120 73 68 07 bf 62 5b 8d bd f7 58 46 bf 9d ed da 3e
       -0.5289375 -0.069021955 -0.774795 0.4275941
000130 d2 5c 93 bf 3d cc 1f bf d7 60 06 3c b0 25 1c 3e
       -1.1512702 -0.6242102 0.008201799 0.15248752
000140 3f 72 48 3f 77 a5 91 bf 7a f7 ae bf 02 4e 21 bf
       0.78299326 -1.1378621 -1.3669274 -0.63009655
000150 8e 89 a7 3f 68 e4 91 3f f3 7c 25 bf 2c 91 b7 3f
       1.3088853 1.1397829 -0.6464378 1.4341178
000160 fe 16 1b bf 1d 2b 08 c0 b0 d9 a7 3f f8 c6 c4 3c
       -0.6058196 -2.1276314 1.3113308 0.024020657
000170 75 27 fa be 48 a9 87 3f e9 a9 78 bf 31 95 3a 3f
       -0.48858228 1.0598536 -0.9713426 0.728839
000180 10 f0 dd be f0 bc 04 3f db 61 62 be d3 d8 2f bf
       -0.43347216 0.51850796 -0.22107641 -0.6869022
000190 ce ef 8e 3e 8a 83 4f 3f 0a 03 97 3f b6 5c 32 bf
       0.2791733 0.8106009 1.1797802 -0.69672716
0001a0 b7 fa 8d be d4 77 0c be cc 04 dc be b6 12 6d 3f
       -0.27730343 -0.13717586 -0.4297241 0.92606676
0001b0 f1 23 6d 3f aa ce 92 3f 59 cf d7 3c b0 74 00 3e
       0.9263297 1.1469319 0.026343988 0.12544513
0001c0 5b 63 17 bf d9 5a b8 3e af 83 25 3f 0c 59 06 3f
       -0.5913598 0.3600681 0.6465406 0.52479625
0001d0 e1 16 a6 3d ba 35 4c 3e 2c 69 9d bf e2 29 08 be
       0.081098326 0.1994237 -1.2297721 -0.13297227
0001e0 e6 39 35 3f ad 96 4f bf d2 39 d3 3e 1f 18 35 3f
       0.7079147 -0.8108929 0.4125505 0.7073993
0001f0 70 99 97 3e bb 03 9f 3e 83 80 30 3d 16 3b 73 3f
       0.2960925 0.31057534 0.04309131 0.95012033

network_body._body_endoder.seq_layers.0.bias f4 [128]
000000 00 00 00 00 00 00 00 00 00 00 00 00 00 00 00 00
       0.0 0.0 0.0 0.0
000010 00 00 00 00 00 00 00 00 00 00 00 00 00 00 00 00
       0.0 0.0 0.0 0.0
000020 00 00 00 00 00 00 00 00 00 00 00 00 00 00 00 00
       0.0 0.0 0.0 0.0
000030 00 00 00 00 00 00 00 00 00 00 00 00 00 00 00 00
       0.0 0.0 0.0 0.0
000040 00 00 00 00 00 00 00 00 00 00 00 00 00 00 00 00
       0.0 0.0 0.0 0.0
000050 00 00 00 00 00 00 00 00 00 00 00 00 00 00 00 00
       0.0 0.0 0.0 0.0
000060 00 00 00 00 00 00 00 00 00 00 00 00 00 00 00 00
       0.0 0.0 0.0 0.0
000070 00 00 00 00 00 00 00 00 00 00 00 00 00 00 00 00
       0.0 0.0 0.0 0.0
000080 00 00 00 00 00 00 00 00 00 00 00 00 00 00 00 00
       0.0 0.0 0.0 0.0
000090 00 00 00 00 00 00 00 00 00 00 00 00 00 00 00 00
       0.0 0.0 0.0 0.0
0000a0 00 00 00 00 00 00 00 00 00 00 00 00 00 00 00 00
       0.0 0.0 0.0 0.0
0000b0 00 00 00 00 00 00 00 00 00 00 00 00 00 00 00 00
       0.0 0.0 0.0 0.0
0000c0 00 00 00 00 00 00 00 00 00 00 00 00 00 00 00 00
       0.0 0.0 0.0 0.0
0000d0 00 00 00 00 00 00 00 00 00 00 00 00 00 00 00 00
       0.0 0.0 0.0 0.0
0000e0 00 00 00 00 00 00 00 00 00 00 00 00 00 00 00 00
       0.0 0.0 0.0 0.0
0000f0 00 00 00 00 00 00 00 00 00 00 00 00 00 00 00 00
       0.0 0.0 0.0 0.0
000100 00 00 00 00 00 00 00 00 00 00 00 00 00 00 00 00
       0.0 0.0 0.0 0.0
000110 00 00 00 00 00 00 00 00 00 00 00 00 00 00 00 00
       0.0 0.0 0.0 0.0
000120 00 00 00 00 00 00 00 00 00 00 00 00 00 00 00 00
       0.0 0.0 0.0 0.0
000130 00 00 00 00 00 00 00 00 00 00 00 00 00 00 00 00
       0.0 0.0 0.0 0.0
000140 00 00 00 00 00 00 00 00 00 00 00 00 00 00 00 00
       0.0 0.0 0.0 0.0
000150 00 00 00 00 00 00 00 00 00 00 00 00 00 00 00 00
       0.0 0.0 0.0 0.0
000160 00 00 00 00 00 00 00 00 00 00 00 00 00 00 00 00
       0.0 0.0 0.0 0.0
000170 00 00 00 00 00 00 00 00 00 00 00 00 00 00 00 00
       0.0 0.0 0.0 0.0
000180 00 00 00 00 00 00 00 00 00 00 00 00 00 00 00 00
       0.0 0.0 0.0 0.0
000190 00 00 00 00 00 00 00 00 00 00 00 00 00 00 00 00
       0.0 0.0 0.0 0.0
0001a0 00 00 00 00 00 00 00 00 00 00 00 00 00 00 00 00
       0.0 0.0 0.0 0.0
0001b0 00 00 00 00 00 00 00 00 00 00 00 00 00 00 00 00
       0.0 0.0 0.0 0.0
0001c0 00 00 00 00 00 00 00 00 00 00 00 00 00 00 00 00
       0.0 0.0 0.0 0.0
0001d0 00 00 00 00 00 00 00 00 00 00 00 00 00 00 00 00
       0.0 0.0 0.0 0.0
0001e0 00 00 00 00 00 00 00 00 00 00 00 00 00 00 00 00
       0.0 0.0 0.0 0.0
0001f0 00 00 00 00 00 00 00 00 00 00 00 00 00 00 00 00
       0.0 0.0 0.0 0.0

network_body._body_endoder.seq_layers.2.weight f4 [128, 128]
000000 d2 39 d9 3d cb f4 b7 bd 8b e6 15 be ae 1b 6a bd
       0.106067315 -0.089822374 -0.14638726 -0.057155304
000010 24 1f 3c 3d 13 3d 0e bd 58 06 0a bc 35 65 9f 3d
       0.045928136 -0.034726214 -0.008424364 0.077829756
000020 44 fb ec bc 40 f0 08 bd 34 83 82 bd 4d ec 8c bd
       -0.028928407 -0.033432245 -0.06372681 -0.06881008
000030 b8 a8 c0 bc 4a 2f b7 3c 85 f3 55 3d f9 4c ea bd
       -0.023517951 0.022361416 0.05223419 -0.114404626
000040 ba 4f aa bc cc 54 a7 bd 2f 65 12 3d 11 bb 2a be
       -0.02078997 -0.081704706 0.035741027 -0.16672923
000050 7d 6d 19 bd fb a8 e1 3c 1e 83 85 3d 88 0a 25 be
       -0.03745793 0.027546396 0.06519149 -0.16117299
000060 e9 32 87 bc 63 e4 ee bd aa 7f 5f 3d 70 44 45 bd
       -0.016503768 -0.11664655 0.05456511 -0.04816097
000070 5c ca 1c be f7 ac e0 bd 8c 70 52 bd 12 92 eb 3d
       -0.15311569 -0.109704904 -0.051376864 0.1150247
000080 2b 58 8c bd 03 64 23 bd af 68 05 bc 02 6f d2 bd
       -0.06852754 -0.0398903 -0.008142634 -0.10275079
000090 20 46 02 3d 12 d0 f4 bc 32 ff 13 bd 5e 3b 94 bd
       0.031805158 -0.029884372 -0.036132045 -0.07237886
0000a0 f6 11 d2 bb 75 7d 9f 3d 67 59 d8 bc 72 5e c3 bc
       -0.0064108325 0.07787601 -0.026409818 -0.023848746
0000b0 28 c9 3f bd f5 46 16 bb 2c dc 86 bd 43 14 82 bd
       -0.046822697 -0.0022930477 -0.06584963 -0.06351521
0000c0 af 3b 02 bd 28 a8 bd bd 61 e6 08 3e 56 67 73 3d
       -0.0317952 -0.09260589 0.13369133 0.05942472
0000d0 32 b0 06 bd b0 ff 0b bd aa c5 b3 3d 25 8b b7 3d
       -0.032882877 -0.03417939 0.08777936 0.089620866
0000e0 67 3a 37 be cf 3f 85 bc 39 3e 2f 3d b8 8e 80 3d
       -0.17893372 -0.016265778 0.04278395 0.062772214
0000f0 59 9d 2a bb 7b 10 4b 3d 40 f3 c6 3c 19 5f d6 3d
       -0.0026033728 0.049576264 0.024285913 0.10467357
000100 6f 2b ea 3d ae 01 17 3d 34 35 dd bd 80 b0 e1 bd
       0.114340656 0.036866836 -0.10801163 -0.11019993
000110 49 73 a6 3c 15 6f b6 3d 73 4b c7 bb 99 62 16 be
       0.020318644 0.08907906 -0.0060819923 -0.1468605
000120 f3 d9 5e 3d 16 3d fc bc 23 02 ef 3d 42 cc b3 bc
       0.05440707 -0.030790847 0.116703294 -0.021947984
000130 f2 0b 07 3e 26 fe 04 be f0 6f e3 3d 6e 74 a2 3d
       0.1318815 -0.12987575 0.11105335 0.079323635
000140 e2 9c 70 bd b1 24 5d 3d 5a 20 54 bc ab eb c6 3d
       -0.058743365 0.05399007 -0.012947166 0.09712919
000150 3a 94 cf bd ce 59 9c bd c5 a1 02 be 83 73 1d be
       -0.10135694 -0.076343164 -0.12757023 -0.15376095
000160 f0 da e5 bd 8f 52 c7 3c 59 54 b4 bd 02 02 12 3d
       -0.112234 0.02433136 -0.088051505 0.035646446
000170 7b b3 e5 bc a6 58 7a bd 7f 42 df 3d 53 07 20 bd
       -0.028039685 -0.061119698 0.10901355 -0.039069485
000180 1f b8 fd 3d a6 71 d8 3d 43 17 df bd bd 37 5a bd
       0.12388634 0.10568552 -0.10893109 -0.053275812
000190 41 9f a7 3c 69 a8 54 3d 88 57 23 3c db 32 ac 3b
       0.02046168 0.05191842 0.0099696 0.005255086
0001a0 32 39 57 be 38 00 94 3c 65 a6 b0 3d 30 ae 65 3d
       -0.21017912 0.01806651 0.08625487 0.05607432
0001b0 c8 25 0b bd c9 ce 33 3e 87 8f 2b 3e 7a 8f 95 bd
       -0.033971578 0.17559351 0.1675397 -0.073027566
0001c0 9c 52 10 3d 0e 1e 5b bd e1 ee bf bd 8b 7d db 3d
       0.035235032 -0.05349546 -0.093717344 0.10717305
0001d0 05 8a b9 3d 84 09 9f 3d 3d 9a 68 3d dc 25 78 bc
       0.09059528 0.07765487 0.056787718 -0.015145745
0001e0 e0 a1 10 bd ee c3 8b bd c7 76 dc bd 20 58 07 be
       -0.035310626 -0.0682448 -0.107648425 -0.13217211
0001f0 f0 5d dc 3c c2 13 89 bd a0 23 03 bb c4 78 4b 3c
       0.026900262 -0.06693222 -0.0020010248 0.0124189295
000200 80 47 95 bd 98 c7 d4 3c 8f a9 9c bd b4 c1 15 3d
       -0.07289028 0.02597408 -0.07649528 0.036561683
000210 bd 72 ac 3d 3f ae 28 3d 1a c0 4a 3b d7 5e 9c 3d
       0.08420322 0.0411818 0.0030937255 0.07635277
000220 18 ca a3 3c dc f1 34 be d1 b8 10 be 7d 5f 54 3e
       0.019993827 -0.17670387 -0.14133002 0.20739551
000230 b0 3b bd 3d dd 61 48 be 1e ce 84 3d d8 43 ca 3d
       0.092399 -0.19568582 0.06484626 0.098762214
000240 1c 24 a3 3d 84 ca 03 bd 00 98 1c 3d b9 27 a4 bc
       0.07965872 -0.032175556 0.038230896 -0.020038472
000250 7c 21 09 be 95 6e 12 bd e5 80 af bc 21 04 31 be
       -0.1339168 -0.03574999 -0.021423766 -0.17286731
000260 5a 31 79 3c 5e f3 79 bc ea d3 01 bc d9 10 dd 3c
       0.01520952 -0.015255777 -0.007924059 0.026985573
000270 b0 95 11 3d a3 fb 96 3c 0c 82 2c 3e 82 65 0f bc
       0.035543144 0.018430537 0.16846484 -0.008752229
000280 0a f9 92 bd b0 ff 3c 3d c3 40 a1 3d 4d c0 15 3e
       -0.07176407 0.04614228 0.078736804 0.14624138
000290 8d 69 a1 3c b6 05 42 3c c5 3b 09 be b9 ea 75 be
       0.01970365 0.011842182 -0.13401707 -0.24015321
0002a0 8f e1 79 bd 14 96 bd 3a 0e c6 45 3e 5e 29 bf bd
       -0.061006125 0.0014464282 0.19313833 -0.09334062
0002b0 de 7d 66 3d 42 ae bd bb 6e d7 93 3c 39 0e c7 3c
       0.05627238 -0.0057885954 0.01804706 0.024298774
0002c0 86 42 a7 3d c5 1b 06 3d 0d 0b d8 3c ee 73 94 bc
       0.08166985 0.032741327 0.026372457 -0.018121686
0002d0 65 dc ad 3d 29 24 7e 3c 74 a7 76 3e 35 19 16 bd
       0.084893025 0.015511551 0.24087316 -0.036645133
0002e0 cb 5f 4f 3d cd 35 2a bd 4c b3 1b bd d2 d7 c3 3c
       0.050628465 -0.041555215 -0.038012788 0.023906622
0002f0 ab 84 94 bd 60 d6 a3 bc fb d5 e6 3d 16 f8 56 bb
       -0.07251867 -0.019999683 0.11271282 -0.003280168
000300 8f 84 ea bc 9e 34 85 bb 06 72 89 3d 8f 71 b7 bc
       -0.028627662 -0.0040651103 0.06711201 -0.022393016
000310 ca 69 44 3d 53 57 ea bd ce 8a 8f bd 25 e4 8e bd
       0.04795245 -0.11442437 -0.07008897 -0.06977109
000320 dd 49 01 bd 9b d7 d5 3c 3a 48 09 3e 78 a7 60 bd
       -0.031564582 0.026103785 0.13406458 -0.05484721
000330 1e 46 88 bd 5b 93 13 3d 15 c9 2a bd db 6e 14 3e
       -0.06653999 0.0360292 -0.041695673 0.14495413
000340 cd 45 e9 3d 8e 02 0a ba 9f 45 b9 bd 8f da 25 bc
       0.113902666 -0.0005264663 -0.09046482 -0.010122909
000350 23 a1 92 ba 4c 33 99 3d 75 77 09 3e 58 17 58 bd
       -0.0011186939 0.07480487 0.13424475 -0.052756637
000360 25 5f ae 3d b7 e6 5e 3e 78 5d a2 bd 8e 7a ef 3d
       0.08514241 0.21767698 -0.07927984 0.11693297
000370 0c 9b 86 3d a3 6c 09 3e a7 35 77 3c 4e 97 90 bc
       0.065725416 0.13420348 0.015088475 -0.017650273
000380 6e ec 88 bb 55 80 09 3e 31 32 ff 3d 21 a2 25 3d
       -0.0041785752 0.13427861 0.12460745 0.04043782
000390 16 00 87 3d 0e 37 8c bd 7d 89 38 be b9 76 7c bd
       0.06591813 -0.06846438 -0.18021198 -0.06163666
0003a0 55 0d 1b 3c 03 0f 0e 3d be 23 59 bd ac c6 58 3c
       0.009463628 0.034682285 -0.053012602 0.013230961
0003b0 53 6a ca bc 4e db 7f 3d 69 79 4a bd a9 76 c3 3d
       -0.024708902 0.062465005 -0.049432192 0.09544117
0003c0 43 fb 3b 3d 02 12 b9 3d 6f d9 22 bc 1e 17 03 3e
       0.04589392 0.09036638 -0.0099395355 0.12801787
0003d0 72 40 48 3d 3d 6c 23 be e6 9c 46 3d a0 f0 48 bd
       0.048889585 -0.15959258 0.048489474 -0.049057603
0003e0 53 e5 1b bc d4 e4 1b 3d 40 49 f4 3c f2 06 d3 3d
       -0.009515124 0.038060024 0.029820085 0.10304059
0003f0 09 bd b3 bd 9a 29 aa 3d fe 30 b3 b9 0f 71 9c bd
       -0.0877629 0.08308716 -0.00034178043 -0.07638752

network_body._body_endoder.seq_layers.2.bias f4 [128]
000000 00 00 00 00 00 00 00 00 00 00 00 00 00 00 00 00
       0.0 0.0 0.0 0.0
000010 00 00 00 00 00 00 00 00 00 00 00 00 00 00 00 00
       0.0 0.0 0.0 0.0
000020 00 00 00 00 00 00 00 00 00 00 00 00 00 00 00 00
       0.0 0.0 0.0 0.0
000030 00 00 00 00 00 00 00 00 00 00 00 00 00 00 00 00
       0.0 0.0 0.0 0.0
000040 00 00 00 00 00 00 00 00 00 00 00 00 00 00 00 00
       0.0 0.0 0.0 0.0
000050 00 00 00 00 00 00 00 00 00 00 00 00 00 00 00 00
       0.0 0.0 0.0 0.0
000060 00 00 00 00 00 00 00 00 00 00 00 00 00 00 00 00
       0.0 0.0 0.0 0.0
000070 00 00 00 00 00 00 00 00 00 00 00 00 00 00 00 00
       0.0 0.0 0.0 0.0
000080 00 00 00 00 00 00 00 00 00 00 00 00 00 00 00 00
       0.0 0.0 0.0 0.0
000090 00 00 00 00 00 00 00 00 00 00 00 00 00 00 00 00
       0.0 0.0 0.0 0.0
0000a0 00 00 00 00 00 00 00 00 00 00 00 00 00 00 00 00
       0.0 0.0 0.0 0.0
0000b0 00 00 00 00 00 00 00 00 00 00 00 00 00 00 00 00
       0.0 0.0 0.0 0.0
0000c0 00 00 00 00 00 00 00 00 00 00 00 00 00 00 00 00
       0.0 0.0 0.0 0.0
0000d0 00 00 00 00 00 00 00 00 00 00 00 00 00 00 00 00
       0.0 0.0 0.0 0.0
0000e0 00 00 00 00 00 00 00 00 00 00 00 00 00 00 00 00
       0.0 0.0 0.0 0.0
0000f0 00 00 00 00 00 00 00 00 00 00 00 00 00 00 00 00
       0.0 0.0 0.0 0.0
000100 00 00 00 00 00 00 00 00 00 00 00 00 00 00 00 00
       0.0 0.0 0.0 0.0
000110 00 00 00 00 00 00 00 00 00 00 00 00 00 00 00 00
       0.0 0.0 0.0 0.0
000120 00 00 00 00 00 00 00 00 00 00 00 00 00 00 00 00
       0.0 0.0 0.0 0.0
000130 00 00 00 00 00 00 00 00 00 00 00 00 00 00 00 00
       0.0 0.0 0.0 0.0
000140 00 00 00 00 00 00 00 00 00 00 00 00 00 00 00 00
       0.0 0.0 0.0 0.0
000150 00 00 00 00 00 00 00 00 00 00 00 00 00 00 00 00
       0.0 0.0 0.0 0.0
000160 00 00 00 00 00 00 00 00 00 00 00 00 00 00 00 00
       0.0 0.0 0.0 0.0
000170 00 00 00 00 00 00 00 00 00 00 00 00 00 00 00 00
       0.0 0.0 0.0 0.0
000180 00 00 00 00 00 00 00 00 00 00 00 00 00 00 00 00
       0.0 0.0 0.0 0.0
000190 00 00 00 00 00 00 00 00 00 00 00 00 00 00 00 00
       0.0 0.0 0.0 0.0
0001a0 00 00 00 00 00 00 00 00 00 00 00 00 00 00 00 00
       0.0 0.0 0.0 0.0
0001b0 00 00 00 00 00 00 00 00 00 00 00 00 00 00 00 00
       0.0 0.0 0.0 0.0
0001c0 00 00 00 00 00 00 00 00 00 00 00 00 00 00 00 00
       0.0 0.0 0.0 0.0
0001d0 00 00 00 00 00 00 00 00 00 00 00 00 00 00 00 00
       0.0 0.0 0.0 0.0
0001e0 00 00 00 00 00 00 00 00 00 00 00 00 00 00 00 00
       0.0 0.0 0.0 0.0
0001f0 00 00 00 00 00 00 00 00 00 00 00 00 00 00 00 00
       0.0 0.0 0.0 0.0

action_model._discrete_distribution.branches.0.weight f4 [5, 128]
000000 a2 4c 12 bc a5 e7 33 bc ee 58 c8 bb a9 80 42 bc
       -0.0089294035 -0.010980521 -0.006114117 -0.011871495
000010 aa b4 65 3c 77 07 15 3c 92 5b 06 b9 0f ab c8 bb
       0.014020124 0.009096018 -0.00012813348 -0.0061239074
000020 8f 0c cb bb b9 a6 af bb bd 47 5d bc 92 32 59 3b
       -0.0061965655 -0.005360451 -0.013505873 0.0033141715
000030 74 a0 8c bb d0 ff 58 bc 19 75 34 bc 5b 46 33 3b
       -0.0042915884 -0.013244584 -0.011014246 0.0027355168
000040 ab f7 5f bc 17 87 b0 bb 2a 50 46 ba 2d d1 e2 bc
       -0.0136698885 -0.0053871977 -0.0007565046 -0.027687633
000050 d5 b8 b3 bb f3 36 4b 3c 74 83 10 3c 3f 50 be bb
       -0.00548468 0.012403238 0.008820403 -0.005807906
000060 b2 9c 0f bc 67 ba 6a 3b e8 7d 53 3c 8f 62 a2 3b
       -0.008765386 0.003581667 0.012908436 0.0049555968
000070 fb 76 15 bc 93 91 c2 b8 3b 98 43 3c 47 a7 08 3b
       -0.009122605 -9.277756e-05 0.01193815 0.0020851658
000080 33 fa 9c 3b f0 7e cb 3b 89 0b 8a bc af 06 88 bb
       0.0047905683 0.0062102005 -0.016851204 -0.0041511874
000090 c0 65 85 3a 95 75 01 bc 80 35 d2 bb e3 67 4f 3b
       0.0010177419 -0.007901569 -0.006415069 0.0031647615
0000a0 0b ef 4c bc ef 33 74 3a 1b b9 ce bb 33 8b 42 3b
       -0.012508164 0.00093156 -0.0063086874 0.002968502
0000b0 c4 f1 a2 bc 57 58 49 3a 93 17 09 3b 90 90 cd 3b
       -0.019890673 0.0007680705 0.0020918592 0.0062733367
0000c0 37 95 9e bb b5 4d 86 3a 97 2c fc ba c3 fa 7c 3c
       -0.004839565 0.0010246547 -0.0019239363 0.015440646
0000d0 6f 02 48 3c 57 47 1e bb 85 17 d6 38 b9 e5 81 bc
       0.012207611 -0.0024151409 0.00010208696 -0.01585661
0000e0 60 ac fd 3b 53 3c 2a bc f8 81 bc 3c bb f4 15 3c
       0.007741496 -0.010390359 0.023011193 0.009152587
0000f0 2f 76 06 3c d3 c2 bc ba a7 a2 24 bc 70 25 f8 bb
       0.008206888 -0.0014401324 -0.010048545 -0.0075728223
000100 9a f3 79 3a 87 8d 1b bc 61 bf 1f 3c 3b 71 a4 bb
       0.00095348957 -0.009494192 0.009750218 -0.005018381
000110 f5 1b 79 3a 42 ab 3c 3b 54 5d 3c bc ce 7c b2 3b
       0.0009502762 0.00287886 -0.0114968605 0.005447007
000120 6e c3 c2 b9 2f fe 4c ba d7 7a 3e 3c d2 6a 66 3b
       -0.0003714817 -0.0007819859 0.011625967 0.0035158885
000130 1b d0 81 3b 3b 64 1a 3c 28 7c 36 bc fd b6 eb bb
       0.0039615757 0.009423311 -0.011138 -0.0071934448
000140 6e 41 80 3c d7 ff 78 3b 64 c2 b7 3c fa 74 4f 3c
       0.0156562 0.003799429 0.02243156 0.012662167
000150 5b d0 25 3c bb 1d 2f ba cf 51 64 3b a5 83 17 3a
       0.010120477 -0.00066801504 0.00348388 0.00057798094
000160 a3 56 84 3b 25 4d 22 3c 2b c0 82 bc 59 28 31 3c
       0.004038648 0.009906088 -0.015960773 0.010812842
000170 27 a2 33 3b e8 b1 28 3b ac ea 86 bb c0 05 39 3b
       0.0027409883 0.0025740806 -0.0041173305 0.0028232187
000180 68 1a 69 3c ca e3 4e bc 8f f0 0a 3c 6f b1 92 ba
       0.014227487 -0.012627551 0.008480205 -0.0011191795
000190 a1 93 31 3c db 39 a7 38 a3 7a 01 3c eb c3 4c 3b
       0.01083842 7.973957e-05 0.007902774 0.0031244706
0001a0 0f 8a c1 3b ac b2 81 3b a3 80 d0 bb 68 26 6b 3b
       0.0059063504 0.003958067 -0.006362991 0.0035881046
0001b0 2f 82 a6 bc eb 05 0f bc 21 57 4a 3b e3 fc b1 3c
       -0.020325748 -0.008729438 0.0030874687 0.021727031
0001c0 c7 59 0d bc 82 95 e2 bb 07 ab ed bb 05 95 0e bc
       -0.008627362 -0.0069147954 -0.007253054 -0.008702521
0001d0 12 8c 44 3c 2d df 22 bc 67 eb 0b 3b bd ec 47 bc
       0.011996286 -0.009940905 0.0021350028 -0.012202439
0001e0 68 18 4e ba 18 ad 53 3c 13 76 92 3a d0 7f 92 bb
       -0.0007861913 0.012919687 0.0011174105 -0.004470803
0001f0 2b bc 84 bc 92 e8 df 3b 80 f5 e7 bb a7 d3 99 bb
       -0.016203007 0.0068331445 -0.0070788264 -0.0046944204
000200 77 15 6b 3c 8b 81 95 bb 9c 48 c6 bb 51 b7 31 bb
       0.014348379 -0.004562562 -0.006051136 -0.0027117322
000210 d9 4c 07 3a 5b e6 60 bb 72 01 ec 3b e6 09 a8 ba
       0.00051612925 -0.003431699 0.0072023207 -0.0012820333
000220 81 4c 9d 3c 21 3d 44 3b d8 c1 89 3a c8 6e 57 3c
       0.019201519 0.0029943662 0.001051004 0.013148971
000230 ec 15 09 3c ad 8b 81 bb 97 9d f4 39 38 6a 3b bc
       0.008367043 -0.003953418 0.0004665672 -0.011438899
000240 9d 32 b1 3b bf 9a a2 3c 65 13 ae ba 83 e4 a2 3b
       0.005407645 0.01984918 -0.0013280927 0.0049710884
000250 70 a9 f7 3b 03 43 0d 3c 1b 9c 39 3b ca b6 50 bb
       0.0075580403 0.008621934 0.0028321806 -0.0031847232
000260 fc d9 b7 b9 56 e3 25 3c 92 04 73 3b 0a 4a 02 3c
       -0.0003506689 0.010125002 0.0037081582 0.007952223
000270 63 69 3d bb 07 49 17 3c bb 96 b9 3b 1b 1e 4c b9
       -0.0028901927 0.00923372 0.0056637204 -0.00019466171
000280 87 4d 39 bc 70 7d 7e ba bd fb f8 38 13 3e 62 3b
       -0.011309988 -0.00097080227 0.000118724514 0.0034521862
000290 f7 ae 07 bc d0 2a 31 3c e8 93 ef bb ea 8d 29 bb
       -0.008281461 0.01081343 -0.007311333 -0.002587194
0002a0 24 4b 17 bc b0 b0 41 3b 8a 9d 57 bc aa a5 e6 3a
       -0.0092342235 0.0029554777 -0.013160119 0.0017596979
0002b0 7f 7f c3 3c 2d 89 c5 bb ff e5 0b ba fb 4f 68 3b
       0.023864506 -0.0060283155 -0.0005336701 0.0035448063
0002c0 ca 6f 73 39 73 54 de bb 0f 69 60 3b 2d 53 54 bb
       0.0002321593 -0.0067849695 0.0034242307 -0.003239821
0002d0 f9 3d 4a bc 9f 84 0c bc 72 d0 6e 3b 63 d6 14 bc
       -0.012343877 -0.008576541 0.003644016 -0.009084317
0002e0 8c ee 9b bb f5 90 51 3c 20 28 3a 3c cc 20 2d bc
       -0.0047586616 0.012790908 0.011362106 -0.010566901
0002f0 07 bd 4d ba 59 c7 8d 3b 33 d8 4f bc 95 39 c4 bb
       -0.00078482967 0.0043267426 -0.012685823 -0.0059883096
000300 88 0c ff 3b 05 1a f0 ba 17 d3 01 bc e7 74 49 3c
       0.0077834763 -0.0018318301 -0.007923863 0.012295938
000310 eb e7 1b bc 3b 85 66 3b ff 07 4d 3b 37 ab 46 bb
       -0.009515743 0.0035174626 0.0031285284 -0.0030314454
000320 af a3 e4 3b 36 28 b3 bb e5 97 73 bb 3b dd b8 bc
       0.0069775204 -0.00546744 -0.0037169394 -0.022566428
000330 2d 1b 44 bb 88 48 f7 3b 7e 7e 0b 3b ab 79 d1 3a
       -0.0029923425 0.007546488 0.0021285112 0.0015981694
000340 e4 b6 83 3c 68 f3 f8 bb ba 59 94 bb 2b f1 69 3c
       0.01607842 -0.0075973757 -0.004527298 0.01427869
000350 e0 0d 42 3b 29 40 11 3c db be 7f 3b 57 5e 60 3a
       0.002961032 0.008865395 0.003902367 0.00085589796
000360 c8 a9 e1 bb ad ac 2a 3c 04 59 0d bc 47 3b d4 3c
       -0.0068866946 0.010417146 -0.00862718 0.025907172
000370 58 c7 9c bb 40 a3 65 3c 8e 47 11 bc 41 68 aa bc
       -0.004784506 0.014015973 -0.008867158 -0.020801665
000380 37 e3 70 bc 7a 58 58 bc 87 5c a5 bc f8 e3 ef 3b
       -0.01470261 -0.013204688 -0.020185722 0.007320877
000390 aa a0 fd bb 0d f0 cc 3b eb ce 22 bc 13 40 cb ba
       -0.0077401 0.006254202 -0.009937028 -0.0015506767
0003a0 4e 47 1a bb 4b a8 6f 3c 58 24 ce bb 45 09 85 3c
       -0.0023541036 0.0146275265 -0.0062909536 0.016239772
0003b0 f3 81 35 bb 2f 2d 34 3c 42 a5 70 bc 8b 9a b9 ba
       -0.0027695864 0.010997101 -0.014687838 -0.0014160437
0003c0 63 9d f9 bb cb 63 3a bb cf 77 cd 3a 87 90 a9 3a
       -0.007617639 -0.002844083 0.0015675965 0.0012936749
0003d0 85 85 0f 39 05 fb 79 b9 7f 24 f8 b9 32 b8 87 bc
       0.00013687283 -0.00023840003 -0.00047329438 -0.016567323
0003e0 74 35 8b 3b 01 60 49 3a f5 41 56 bc da 74 a3 ba
       0.0042483155 0.0007681847 -0.013077249 -0.0012470738
0003f0 1b fd 5e bb 00 1b a8 bb 5b bf 83 3b 61 b2 a1 bb
       -0.0034025374 -0.005130172 0.004020614 -0.0049345945

action_model._discrete_distribution.branches.0.bias f4 [5]
000000 00 00 00 00 00 00 00 00 00 00 00 00 00 00 00 00
       0.0 0.0 0.0 0.0
000010 00 00 00 00
       0.0
