results/ppo/ReachTarget/ReachTarget-448.pt (torch, 145517 bytes, 11 tensors)

network_body._body_endoder.seq_layers.0.weight f4 [128, 1]
0	0x3f3ea2b2	0.74467003
1	0x3f83fa21	1.0310708
2	0x3f2a2f59	0.66478497
3	0xbe8164a9	-0.2527211
4	0xbf27ac86	-0.65497625
5	0x3e9cf552	0.30655915
6	0x3d81837d	0.063239075
7	0x3fa7b999	1.3103515
8	0x3f3ab643	0.7293436
9	0x3db5d6fc	0.08878896
10	0xbf1cf13c	-0.61305594
11	0xbe05ee6e	-0.13079235
12	0xbfbc60f5	-1.4717089
13	0xbfec494a	-1.8459866
14	0x3e5774c4	0.21040636
15	0x3e83245d	0.2561368
16	0xbf9a84ae	-1.2071741
17	0xbfa1a60d	-1.26288
18	0xbfd00131	-1.6250364
19	0x3fab58ba	1.3386452
20	0x3fe310da	1.7739518
21	0xbeba3491	-0.3636823
22	0x3f4c6dea	0.79855216
23	0xbf765a8b	-0.9623191
24	0xbd2f0ab4	-0.042734817
25	0x3fc5892a	1.5432484
26	0x3f20142e	0.6253079
27	0x3fcfe07c	1.6240382
28	0x3f849bc6	1.0360038
29	0x3f89a7b6	1.0754306
30	0x3fa96556	1.323405
31	0xbe43cbc3	-0.19120698
32	0xc003983c	-2.0561666
33	0xbef818c1	-0.48456386
34	0xbdc163fa	-0.09442897
35	0x3ec9f888	0.39447427
36	0x3f9776f2	1.1833174
37	0xbf9a47da	-1.2053177
38	0x3f82d2f4	1.0220628
39	0xbfe57cd8	-1.7928724
40	0xbeda0026	-0.42578238
41	0xbf3d253d	-0.73884946
42	0x3e91d020	0.284791
43	0xbd484d5e	-0.048901908
44	0xc0173c27	-2.3630464
45	0x3e48b6ab	0.19600932
46	0x40285977	2.6304605
47	0x3ef92914	0.48664153
48	0xbf765e04	-0.96237206
49	0x3f62a4bf	0.8853263
50	0x3e79c073	0.2438982
51	0x3bcbf493	0.006224224
52	0xbe894334	-0.26809084
53	0x3f898938	1.0745001
54	0xbfd289b9	-1.644828
55	0x3f8472d1	1.0347539
56	0x3f0a212a	0.53956854
57	0x3f155290	0.58329105
58	0xbed726a8	-0.4202168
59	0x3f98658e	1.1905992
60	0xbf3895a7	-0.7210335
61	0xc0301226	-2.7511077
62	0xbcbdfcf9	-0.023191916
63	0xbd977ddb	-0.07397052
64	0xbf9e287a	-1.2356102
65	0xbfb220f2	-1.3916304
66	0xbf0604d9	-0.52351147
67	0x3e2c96ba	0.16854373
68	0xbe6b25de	-0.22963664
69	0x3f811326	1.0083969
70	0x3f0e7c14	0.5565808
71	0x3fbd20b6	1.4775608
72	0xbf076873	-0.5289375
73	0xbd8d5b62	-0.069021955
74	0xbf4658f7	-0.774795
75	0x3edaed9d	0.4275941
76	0xbf935cd2	-1.1512702
77	0xbf1fcc3d	-0.6242102
78	0x3c0660d7	0.008201799
79	0x3e1c25b0	0.15248752
80	0x3f48723f	0.78299326
81	0xbf91a577	-1.1378621
82	0xbfaef77a	-1.3669274
83	0xbf214e02	-0.63009655
84	0x3fa7898e	1.3088853
85	0x3f91e468	1.1397829
86	0xbf257cf3	-0.6464378
87	0x3fb7912c	1.4341178
88	0xbf1b16fe	-0.6058196
89	0xc0082b1d	-2.1276314
90	0x3fa7d9b0	1.3113308
91	0x3cc4c6f8	0.024020657
92	0xbefa2775	-0.48858228
93	0x3f87a948	1.0598536
94	0xbf78a9e9	-0.9713426
95	0x3f3a9531	0.728839
96	0xbeddf010	-0.43347216
97	0x3f04bcf0	0.51850796
98	0xbe6261db	-0.22107641
99	0xbf2fd8d3	-0.6869022
100	0x3e8eefce	0.2791733
101	0x3f4f838a	0.8106009
102	0x3f97030a	1.1797802
103	0xbf325cb6	-0.69672716
104	0xbe8dfab7	-0.27730343
105	0xbe0c77d4	-0.13717586
106	0xbedc04cc	-0.4297241
107	0x3f6d12b6	0.92606676
108	0x3f6d23f1	0.9263297
109	0x3f92ceaa	1.1469319
110	0x3cd7cf59	0.026343988
111	0x3e0074b0	0.12544513
112	0xbf17635b	-0.5913598
113	0x3eb85ad9	0.3600681
114	0x3f2583af	0.6465406
115	0x3f06590c	0.52479625
116	0x3da616e1	0.081098326
117	0x3e4c35ba	0.1994237
118	0xbf9d692c	-1.2297721
119	0xbe0829e2	-0.13297227
120	0x3f3539e6	0.7079147
121	0xbf4f96ad	-0.8108929
122	0x3ed339d2	0.4125505
123	0x3f35181f	0.7073993
124	0x3e979970	0.2960925
125	0x3e9f03bb	0.31057534
126	0x3d308083	0.04309131
127	0x3f733b16	0.95012033

network_body._body_endoder.seq_layers.0.bias f4 [128]
0	0x00000000	0.0
1	0x00000000	0.0
2	0x00000000	0.0
3	0x00000000	0.0
4	0x00000000	0.0
5	0x00000000	0.0
6	0x00000000	0.0
7	0x00000000	0.0
8	0x00000000	0.0
9	0x00000000	0.0
10	0x00000000	0.0
11	0x00000000	0.0
12	0x00000000	0.0
13	0x00000000	0.0
14	0x00000000	0.0
15	0x00000000	0.0
16	0x00000000	0.0
17	0x00000000	0.0
18	0x00000000	0.0
19	0x00000000	0.0
20	0x00000000	0.0
21	0x00000000	0.0
22	0x00000000	0.0
23	0x00000000	0.0
24	0x00000000	0.0
25	0x00000000	0.0
26	0x00000000	0.0
27	0x00000000	0.0
28	0x00000000	0.0
29	0x00000000	0.0
30	0x00000000	0.0
31	0x00000000	0.0
32	0x00000000	0.0
33	0x00000000	0.0
34	0x00000000	0.0
35	0x00000000	0.0
36	0x00000000	0.0
37	0x00000000	0.0
38	0x00000000	0.0
39	0x00000000	0.0
40	0x00000000	0.0
41	0x00000000	0.0
42	0x00000000	0.0
43	0x00000000	0.0
44	0x00000000	0.0
45	0x00000000	0.0
46	0x00000000	0.0
47	0x00000000	0.0
48	0x00000000	0.0
49	0x00000000	0.0
50	0x00000000	0.0
51	0x00000000	0.0
52	0x00000000	0.0
53	0x00000000	0.0
54	0x00000000	0.0
55	0x00000000	0.0
56	0x00000000	0.0
57	0x00000000	0.0
58	0x00000000	0.0
59	0x00000000	0.0
60	0x00000000	0.0
61	0x00000000	0.0
62	0x00000000	0.0
63	0x00000000	0.0
64	0x00000000	0.0
65	0x00000000	0.0
66	0x00000000	0.0
67	0x00000000	0.0
68	0x00000000	0.0
69	0x00000000	0.0
70	0x00000000	0.0
71	0x00000000	0.0
72	0x00000000	0.0
73	0x00000000	0.0
74	0x00000000	0.0
75	0x00000000	0.0
76	0x00000000	0.0
77	0x00000000	0.0
78	0x00000000	0.0
79	0x00000000	0.0
80	0x00000000	0.0
81	0x00000000	0.0
82	0x00000000	0.0
83	0x00000000	0.0
84	0x00000000	0.0
85	0x00000000	0.0
86	0x00000000	0.0
87	0x00000000	0.0
88	0x00000000	0.0
89	0x00000000	0.0
90	0x00000000	0.0
91	0x00000000	0.0
92	0x00000000	0.0
93	0x00000000	0.0
94	0x00000000	0.0
95	0x00000000	0.0
96	0x00000000	0.0
97	0x00000000	0.0
98	0x00000000	0.0
99	0x00000000	0.0
100	0x00000000	0.0
101	0x00000000	0.0
102	0x00000000	0.0
103	0x00000000	0.0
104	0x00000000	0.0
105	0x00000000	0.0
106	0x00000000	0.0
107	0x00000000	0.0
108	0x00000000	0.0
109	0x00000000	0.0
110	0x00000000	0.0
111	0x00000000	0.0
112	0x00000000	0.0
113	0x00000000	0.0
114	0x00000000	0.0
115	0x00000000	0.0
116	0x00000000	0.0
117	0x00000000	0.0
118	0x00000000	0.0
119	0x00000000	0.0
120	0x00000000	0.0
121	0x00000000	0.0
122	0x00000000	0.0
123	0x00000000	0.0
124	0x00000000	0.0
125	0x00000000	0.0
126	0x00000000	0.0
127	0x00000000	0.0

network_body._body_endoder.seq_layers.2.weight f4 [128, 128]
0	0x3dd939d2	0.106067315
1	0xbdb7f4cb	-0.089822374
2	0xbe15e68b	-0.14638726
3	0xbd6a1bae	-0.057155304
4	0x3d3c1f24	0.045928136
5	0xbd0e3d13	-0.034726214
6	0xbc0a0658	-0.008424364
7	0x3d9f6535	0.077829756
8	0xbcecfb44	-0.028928407
9	0xbd08f040	-0.033432245
10	0xbd828334	-0.06372681
11	0xbd8cec4d	-0.06881008
12	0xbcc0a8b8	-0.023517951
13	0x3cb72f4a	0.022361416
14	0x3d55f385	0.05223419
15	0xbdea4cf9	-0.114404626
16	0xbcaa4fba	-0.02078997
17	0xbda754cc	-0.081704706
18	0x3d12652f	0.035741027
19	0xbe2abb11	-0.16672923
20	0xbd196d7d	-0.03745793
21	0x3ce1a8fb	0.027546396
22	0x3d85831e	0.06519149
23	0xbe250a88	-0.16117299
24	0xbc8732e9	-0.016503768
25	0xbdeee463	-0.11664655
26	0x3d5f7faa	0.05456511
27	0xbd454470	-0.04816097
28	0xbe1cca5c	-0.15311569
29	0xbde0acf7	-0.109704904
30	0xbd52708c	-0.051376864
31	0x3deb9212	0.1150247
32	0xbd8c582b	-0.06852754
33	0xbd236403	-0.0398903
34	0xbc0568af	-0.008142634
35	0xbdd26f02	-0.10275079
36	0x3d024620	0.031805158
37	0xbcf4d012	-0.029884372
38	0xbd13ff32	-0.036132045
39	0xbd943b5e	-0.07237886
40	0xbbd211f6	-0.0064108325
41	0x3d9f7d75	0.07787601
42	0xbcd85967	-0.026409818
43	0xbcc35e72	-0.023848746
44	0xbd3fc928	-0.046822697
45	0xbb1646f5	-0.0022930477
46	0xbd86dc2c	-0.06584963
47	0xbd821443	-0.06351521
48	0xbd023baf	-0.0317952
49	0xbdbda828	-0.09260589
50	0x3e08e661	0.13369133
51	0x3d736756	0.05942472
52	0xbd06b032	-0.032882877
53	0xbd0bffb0	-0.03417939
54	0x3db3c5aa	0.08777936
55	0x3db78b25	0.089620866
56	0xbe373a67	-0.17893372
57	0xbc853fcf	-0.016265778
58	0x3d2f3e39	0.04278395
59	0x3d808eb8	0.062772214
60	0xbb2a9d59	-0.0026033728
61	0x3d4b107b	0.049576264
62	0x3cc6f340	0.024285913
63	0x3dd65f19	0.10467357
64	0x3dea2b6f	0.114340656
65	0x3d1701ae	0.036866836
66	0xbddd3534	-0.10801163
67	0xbde1b080	-0.11019993
68	0x3ca67349	0.020318644
69	0x3db66f15	0.08907906
70	0xbbc74b73	-0.0060819923
71	0xbe166299	-0.1468605
72	0x3d5ed9f3	0.05440707
73	0xbcfc3d16	-0.030790847
74	0x3def0223	0.116703294
75	0xbcb3cc42	-0.021947984
76	0x3e070bf2	0.1318815
77	0xbe04fe26	-0.12987575
78	0x3de36ff0	0.11105335
79	0x3da2746e	0.079323635
80	0xbd709ce2	-0.058743365
81	0x3d5d24b1	0.05399007
82	0xbc54205a	-0.012947166
83	0x3dc6ebab	0.09712919
84	0xbdcf943a	-0.10135694
85	0xbd9c59ce	-0.076343164
86	0xbe02a1c5	-0.12757023
87	0xbe1d7383	-0.15376095
88	0xbde5daf0	-0.112234
89	0x3cc7528f	0.02433136
90	0xbdb45459	-0.088051505
91	0x3d120202	0.035646446
92	0xbce5b37b	-0.028039685
93	0xbd7a58a6	-0.061119698
94	0x3ddf427f	0.10901355
95	0xbd200753	-0.039069485
96	0x3dfdb81f	0.12388634
97	0x3dd871a6	0.10568552
98	0xbddf1743	-0.10893109
99	0xbd5a37bd	-0.053275812
100	0x3ca79f41	0.02046168
101	0x3d54a869	0.05191842
102	0x3c235788	0.0099696
103	0x3bac32db	0.005255086
104	0xbe573932	-0.21017912
105	0x3c940038	0.01806651
106	0x3db0a665	0.08625487
107	0x3d65ae30	0.05607432
108	0xbd0b25c8	-0.033971578
109	0x3e33cec9	0.17559351
110	0x3e2b8f87	0.1675397
111	0xbd958f7a	-0.073027566
112	0x3d10529c	0.035235032
113	0xbd5b1e0e	-0.05349546
114	0xbdbfeee1	-0.093717344
115	0x3ddb7d8b	0.10717305
116	0x3db98a05	0.09059528
117	0x3d9f0984	0.07765487
118	0x3d689a3d	0.056787718
119	0xbc7825dc	-0.015145745
120	0xbd10a1e0	-0.035310626
121	0xbd8bc3ee	-0.0682448
122	0xbddc76c7	-0.107648425
123	0xbe075820	-0.13217211
124	0x3cdc5df0	0.026900262
125	0xbd8913c2	-0.06693222
126	0xbb0323a0	-0.0020010248
127	0x3c4b78c4	0.0124189295
128	0xbd954780	-0.07289028
129	0x3cd4c798	0.02597408
130	0xbd9ca98f	-0.07649528
131	0x3d15c1b4	0.036561683
132	0x3dac72bd	0.08420322
133	0x3d28ae3f	0.0411818
134	0x3b4ac01a	0.0030937255
135	0x3d9c5ed7	0.07635277
136	0x3ca3ca18	0.019993827
137	0xbe34f1dc	-0.17670387
138	0xbe10b8d1	-0.14133002
139	0x3e545f7d	0.20739551
140	0x3dbd3bb0	0.092399
141	0xbe4861dd	-0.19568582
142	0x3d84ce1e	0.06484626
143	0x3dca43d8	0.098762214
144	0x3da3241c	0.07965872
145	0xbd03ca84	-0.032175556
146	0x3d1c9800	0.038230896
147	0xbca427b9	-0.020038472
148	0xbe09217c	-0.1339168
149	0xbd126e95	-0.03574999
150	0xbcaf80e5	-0.021423766
151	0xbe310421	-0.17286731
152	0x3c79315a	0.01520952
153	0xbc79f35e	-0.015255777
154	0xbc01d3ea	-0.007924059
155	0x3cdd10d9	0.026985573
156	0x3d1195b0	0.035543144
157	0x3c96fba3	0.018430537
158	0x3e2c820c	0.16846484
159	0xbc0f6582	-0.008752229
160	0xbd92f90a	-0.07176407
161	0x3d3cffb0	0.04614228
162	0x3da140c3	0.078736804
163	0x3e15c04d	0.14624138
164	0x3ca1698d	0.01970365
165	0x3c4205b6	0.011842182
166	0xbe093bc5	-0.13401707
167	0xbe75eab9	-0.24015321
168	0xbd79e18f	-0.061006125
169	0x3abd9614	0.0014464282
170	0x3e45c60e	0.19313833
171	0xbdbf295e	-0.09334062
172	0x3d667dde	0.05627238
173	0xbbbdae42	-0.0057885954
174	0x3c93d76e	0.01804706
175	0x3cc70e39	0.024298774
176	0x3da74286	0.08166985
177	0x3d061bc5	0.032741327
178	0x3cd80b0d	0.026372457
179	0xbc9473ee	-0.018121686
180	0x3daddc65	0.084893025
181	0x3c7e2429	0.015511551
182	0x3e76a774	0.24087316
183	0xbd161935	-0.036645133
184	0x3d4f5fcb	0.050628465
185	0xbd2a35cd	-0.041555215
186	0xbd1bb34c	-0.038012788
187	0x3cc3d7d2	0.023906622
188	0xbd9484ab	-0.07251867
189	0xbca3d660	-0.019999683
190	0x3de6d5fb	0.11271282
191	0xbb56f816	-0.003280168
192	0xbcea848f	-0.028627662
193	0xbb85349e	-0.0040651103
194	0x3d897206	0.06711201
195	0xbcb7718f	-0.022393016
196	0x3d4469ca	0.04795245
197	0xbdea5753	-0.11442437
198	0xbd8f8ace	-0.07008897
199	0xbd8ee425	-0.06977109
200	0xbd0149dd	-0.031564582
201	0x3cd5d79b	0.026103785
202	0x3e09483a	0.13406458
203	0xbd60a778	-0.05484721
204	0xbd88461e	-0.06653999
205	0x3d13935b	0.0360292
206	0xbd2ac915	-0.041695673
207	0x3e146edb	0.14495413
208	0x3de945cd	0.113902666
209	0xba0a028e	-0.0005264663
210	0xbdb9459f	-0.09046482
211	0xbc25da8f	-0.010122909
212	0xba92a123	-0.0011186939
213	0x3d99334c	0.07480487
214	0x3e097775	0.13424475
215	0xbd581758	-0.052756637
216	0x3dae5f25	0.08514241
217	0x3e5ee6b7	0.21767698
218	0xbda25d78	-0.07927984
219	0x3def7a8e	0.11693297
220	0x3d869b0c	0.065725416
221	0x3e096ca3	0.13420348
222	0x3c7735a7	0.015088475
223	0xbc90974e	-0.017650273
224	0xbb88ec6e	-0.0041785752
225	0x3e098055	0.13427861
226	0x3dff3231	0.12460745
227	0x3d25a221	0.04043782
228	0x3d870016	0.06591813
229	0xbd8c370e	-0.06846438
230	0xbe38897d	-0.18021198
231	0xbd7c76b9	-0.06163666
232	0x3c1b0d55	0.009463628
233	0x3d0e0f03	0.034682285
234	0xbd5923be	-0.053012602
235	0x3c58c6ac	0.013230961
236	0xbcca6a53	-0.024708902
237	0x3d7fdb4e	0.062465005
238	0xbd4a7969	-0.049432192
239	0x3dc376a9	0.09544117
240	0x3d3bfb43	0.04589392
241	0x3db91202	0.09036638
242	0xbc22d96f	-0.0099395355
243	0x3e03171e	0.12801787
244	0x3d484072	0.048889585
245	0xbe236c3d	-0.15959258
246	0x3d469ce6	0.048489474
247	0xbd48f0a0	-0.049057603
248	0xbc1be553	-0.009515124
249	0x3d1be4d4	0.038060024
250	0x3cf44940	0.029820085
251	0x3dd306f2	0.10304059
252	0xbdb3bd09	-0.0877629
253	0x3daa299a	0.08308716
254	0xb9b330fe	-0.00034178043
255	0xbd9c710f	-0.07638752

network_body._body_endoder.seq_layers.2.bias f4 [128]
0	0x00000000	0.0
1	0x00000000	0.0
2	0x00000000	0.0
3	0x00000000	0.0
4	0x00000000	0.0
5	0x00000000	0.0
6	0x00000000	0.0
7	0x00000000	0.0
8	0x00000000	0.0
9	0x00000000	0.0
10	0x00000000	0.0
11	0x00000000	0.0
12	0x00000000	0.0
13	0x00000000	0.0
14	0x00000000	0.0
15	0x00000000	0.0
16	0x00000000	0.0
17	0x00000000	0.0
18	0x00000000	0.0
19	0x00000000	0.0
20	0x00000000	0.0
21	0x00000000	0.0
22	0x00000000	0.0
23	0x00000000	0.0
24	0x00000000	0.0
25	0x00000000	0.0
26	0x00000000	0.0
27	0x00000000	0.0
28	0x00000000	0.0
29	0x00000000	0.0
30	0x00000000	0.0
31	0x00000000	0.0
32	0x00000000	0.0
33	0x00000000	0.0
34	0x00000000	0.0
35	0x00000000	0.0
36	0x00000000	0.0
37	0x00000000	0.0
38	0x00000000	0.0
39	0x00000000	0.0
40	0x00000000	0.0
41	0x00000000	0.0
42	0x00000000	0.0
43	0x00000000	0.0
44	0x00000000	0.0
45	0x00000000	0.0
46	0x00000000	0.0
47	0x00000000	0.0
48	0x00000000	0.0
49	0x00000000	0.0
50	0x00000000	0.0
51	0x00000000	0.0
52	0x00000000	0.0
53	0x00000000	0.0
54	0x00000000	0.0
55	0x00000000	0.0
56	0x00000000	0.0
57	0x00000000	0.0
58	0x00000000	0.0
59	0x00000000	0.0
60	0x00000000	0.0
61	0x00000000	0.0
62	0x00000000	0.0
63	0x00000000	0.0
64	0x00000000	0.0
65	0x00000000	0.0
66	0x00000000	0.0
67	0x00000000	0.0
68	0x00000000	0.0
69	0x00000000	0.0
70	0x00000000	0.0
71	0x00000000	0.0
72	0x00000000	0.0
73	0x00000000	0.0
74	0x00000000	0.0
75	0x00000000	0.0
76	0x00000000	0.0
77	0x00000000	0.0
78	0x00000000	0.0
79	0x00000000	0.0
80	0x00000000	0.0
81	0x00000000	0.0
82	0x00000000	0.0
83	0x00000000	0.0
84	0x00000000	0.0
85	0x00000000	0.0
86	0x00000000	0.0
87	0x00000000	0.0
88	0x00000000	0.0
89	0x00000000	0.0
90	0x00000000	0.0
91	0x00000000	0.0
92	0x00000000	0.0
93	0x00000000	0.0
94	0x00000000	0.0
95	0x00000000	0.0
96	0x00000000	0.0
97	0x00000000	0.0
98	0x00000000	0.0
99	0x00000000	0.0
100	0x00000000	0.0
101	0x00000000	0.0
102	0x00000000	0.0
103	0x00000000	0.0
104	0x00000000	0.0
105	0x00000000	0.0
106	0x00000000	0.0
107	0x00000000	0.0
108	0x00000000	0.0
109	0x00000000	0.0
110	0x00000000	0.0
111	0x00000000	0.0
112	0x00000000	0.0
113	0x00000000	0.0
114	0x00000000	0.0
115	0x00000000	0.0
116	0x00000000	0.0
117	0x00000000	0.0
118	0x00000000	0.0
119	0x00000000	0.0
120	0x00000000	0.0
121	0x00000000	0.0
122	0x00000000	0.0
123	0x00000000	0.0
124	0x00000000	0.0
125	0x00000000	0.0
126	0x00000000	0.0
127	0x00000000	0.0

action_model._discrete_distribution.branches.0.weight f4 [5, 128]
0	0xbc124ca2	-0.0089294035
1	0xbc33e7a5	-0.010980521
2	0xbbc858ee	-0.006114117
3	0xbc4280a9	-0.011871495
4	0x3c65b4aa	0.014020124
5	0x3c150777	0.009096018
6	0xb9065b92	-0.00012813348
7	0xbbc8ab0f	-0.0061239074
8	0xbbcb0c8f	-0.0061965655
9	0xbbafa6b9	-0.005360451
10	0xbc5d47bd	-0.013505873
11	0x3b593292	0.0033141715
12	0xbb8ca074	-0.0042915884
13	0xbc58ffd0	-0.013244584
14	0xbc347519	-0.011014246
15	0x3b33465b	0.0027355168
16	0xbc5ff7ab	-0.0136698885
17	0xbbb08717	-0.0053871977
18	0xba46502a	-0.0007565046
19	0xbce2d12d	-0.027687633
20	0xbbb3b8d5	-0.00548468
21	0x3c4b36f3	0.012403238
22	0x3c108374	0.008820403
23	0xbbbe503f	-0.005807906
24	0xbc0f9cb2	-0.008765386
25	0x3b6aba67	0.003581667
26	0x3c537de8	0.012908436
27	0x3ba2628f	0.0049555968
28	0xbc1576fb	-0.009122605
29	0xb8c29193	-9.277756e-05
30	0x3c43983b	0.01193815
31	0x3b08a747	0.0020851658
32	0x3b9cfa33	0.0047905683
33	0x3bcb7ef0	0.0062102005
34	0xbc8a0b89	-0.016851204
35	0xbb8806af	-0.0041511874
36	0x3a8565c0	0.0010177419
37	0xbc017595	-0.007901569
38	0xbbd23580	-0.006415069
39	0x3b4f67e3	0.0031647615
40	0xbc4cef0b	-0.012508164
41	0x3a7433ef	0.00093156
42	0xbbceb91b	-0.0063086874
43	0x3b428b33	0.002968502
44	0xbca2f1c4	-0.019890673
45	0x3a495857	0.0007680705
46	0x3b091793	0.0020918592
47	0x3bcd9090	0.0062733367
48	0xbb9e9537	-0.004839565
49	0x3a864db5	0.0010246547
50	0xbafc2c97	-0.0019239363
51	0x3c7cfac3	0.015440646
52	0x3c48026f	0.012207611
53	0xbb1e4757	-0.0024151409
54	0x38d61785	0.00010208696
55	0xbc81e5b9	-0.01585661
56	0x3bfdac60	0.007741496
57	0xbc2a3c53	-0.010390359
58	0x3cbc81f8	0.023011193
59	0x3c15f4bb	0.009152587
60	0x3c06762f	0.008206888
61	0xbabcc2d3	-0.0014401324
62	0xbc24a2a7	-0.010048545
63	0xbbf82570	-0.0075728223
64	0x3a79f39a	0.00095348957
65	0xbc1b8d87	-0.009494192
66	0x3c1fbf61	0.009750218
67	0xbba4713b	-0.005018381
68	0x3a791bf5	0.0009502762
69	0x3b3cab42	0.00287886
70	0xbc3c5d54	-0.0114968605
71	0x3bb27cce	0.005447007
72	0xb9c2c36e	-0.0003714817
73	0xba4cfe2f	-0.0007819859
74	0x3c3e7ad7	0.011625967
75	0x3b666ad2	0.0035158885
76	0x3b81d01b	0.0039615757
77	0x3c1a643b	0.009423311
78	0xbc367c28	-0.011138
79	0xbbebb6fd	-0.0071934448
80	0x3c80416e	0.0156562
81	0x3b78ffd7	0.003799429
82	0x3cb7c264	0.02243156
83	0x3c4f74fa	0.012662167
84	0x3c25d05b	0.010120477
85	0xba2f1dbb	-0.00066801504
86	0x3b6451cf	0.00348388
87	0x3a1783a5	0.00057798094
88	0x3b8456a3	0.004038648
89	0x3c224d25	0.009906088
90	0xbc82c02b	-0.015960773
91	0x3c312859	0.010812842
92	0x3b33a227	0.0027409883
93	0x3b28b1e8	0.0025740806
94	0xbb86eaac	-0.0041173305
95	0x3b3905c0	0.0028232187
96	0x3c691a68	0.014227487
97	0xbc4ee3ca	-0.012627551
98	0x3c0af08f	0.008480205
99	0xba92b16f	-0.0011191795
100	0x3c3193a1	0.01083842
101	0x38a739db	7.973957e-05
102	0x3c017aa3	0.007902774
103	0x3b4cc3eb	0.0031244706
104	0x3bc18a0f	0.0059063504
105	0x3b81b2ac	0.003958067
106	0xbbd080a3	-0.006362991
107	0x3b6b2668	0.0035881046
108	0xbca6822f	-0.020325748
109	0xbc0f05eb	-0.008729438
110	0x3b4a5721	0.0030874687
111	0x3cb1fce3	0.021727031
112	0xbc0d59c7	-0.008627362
113	0xbbe29582	-0.0069147954
114	0xbbedab07	-0.007253054
115	0xbc0e9505	-0.008702521
116	0x3c448c12	0.011996286
117	0xbc22df2d	-0.009940905
118	0x3b0beb67	0.0021350028
119	0xbc47ecbd	-0.012202439
120	0xba4e1868	-0.0007861913
121	0x3c53ad18	0.012919687
122	0x3a927613	0.0011174105
123	0xbb927fd0	-0.004470803
124	0xbc84bc2b	-0.016203007
125	0x3bdfe892	0.0068331445
126	0xbbe7f580	-0.0070788264
127	0xbb99d3a7	-0.0046944204
128	0x3c6b1577	0.014348379
129	0xbb95818b	-0.004562562
130	0xbbc6489c	-0.006051136
131	0xbb31b751	-0.0027117322
132	0x3a074cd9	0.00051612925
133	0xbb60e65b	-0.003431699
134	0x3bec0172	0.0072023207
135	0xbaa809e6	-0.0012820333
136	0x3c9d4c81	0.019201519
137	0x3b443d21	0.0029943662
138	0x3a89c1d8	0.001051004
139	0x3c576ec8	0.013148971
140	0x3c0915ec	0.008367043
141	0xbb818bad	-0.003953418
142	0x39f49d97	0.0004665672
143	0xbc3b6a38	-0.011438899
144	0x3bb1329d	0.005407645
145	0x3ca29abf	0.01984918
146	0xbaae1365	-0.0013280927
147	0x3ba2e483	0.0049710884
148	0x3bf7a970	0.0075580403
149	0x3c0d4303	0.008621934
150	0x3b399c1b	0.0028321806
151	0xbb50b6ca	-0.0031847232
152	0xb9b7d9fc	-0.0003506689
153	0x3c25e356	0.010125002
154	0x3b730492	0.0037081582
155	0x3c024a0a	0.007952223
156	0xbb3d6963	-0.0028901927
157	0x3c174907	0.00923372
158	0x3bb996bb	0.0056637204
159	0xb94c1e1b	-0.00019466171
160	0xbc394d87	-0.011309988
161	0xba7e7d70	-0.00097080227
162	0x38f8fbbd	0.000118724514
163	0x3b623e13	0.0034521862
164	0xbc07aef7	-0.008281461
165	0x3c312ad0	0.01081343
166	0xbbef93e8	-0.007311333
167	0xbb298dea	-0.002587194
168	0xbc174b24	-0.0092342235
169	0x3b41b0b0	0.0029554777
170	0xbc579d8a	-0.013160119
171	0x3ae6a5aa	0.0017596979
172	0x3cc37f7f	0.023864506
173	0xbbc5892d	-0.0060283155
174	0xba0be5ff	-0.0005336701
175	0x3b684ffb	0.0035448063
176	0x39736fca	0.0002321593
177	0xbbde5473	-0.0067849695
178	0x3b60690f	0.0034242307
179	0xbb54532d	-0.003239821
180	0xbc4a3df9	-0.012343877
181	0xbc0c849f	-0.008576541
182	0x3b6ed072	0.003644016
183	0xbc14d663	-0.009084317
184	0xbb9bee8c	-0.0047586616
185	0x3c5190f5	0.012790908
186	0x3c3a2820	0.011362106
187	0xbc2d20cc	-0.010566901
188	0xba4dbd07	-0.00078482967
189	0x3b8dc759	0.0043267426
190	0xbc4fd833	-0.012685823
191	0xbbc43995	-0.0059883096
192	0x3bff0c88	0.0077834763
193	0xbaf01a05	-0.0018318301
194	0xbc01d317	-0.007923863
195	0x3c4974e7	0.012295938
196	0xbc1be7eb	-0.009515743
197	0x3b66853b	0.0035174626
198	0x3b4d07ff	0.0031285284
199	0xbb46ab37	-0.0030314454
200	0x3be4a3af	0.0069775204
201	0xbbb32836	-0.00546744
202	0xbb7397e5	-0.0037169394
203	0xbcb8dd3b	-0.022566428
204	0xbb441b2d	-0.0029923425
205	0x3bf74888	0.007546488
206	0x3b0b7e7e	0.0021285112
207	0x3ad179ab	0.0015981694
208	0x3c83b6e4	0.01607842
209	0xbbf8f368	-0.0075973757
210	0xbb9459ba	-0.004527298
211	0x3c69f12b	0.01427869
212	0x3b420de0	0.002961032
213	0x3c114029	0.008865395
214	0x3b7fbedb	0.003902367
215	0x3a605e57	0.00085589796
216	0xbbe1a9c8	-0.0068866946
217	0x3c2aacad	0.010417146
218	0xbc0d5904	-0.00862718
219	0x3cd43b47	0.025907172
220	0xbb9cc758	-0.004784506
221	0x3c65a340	0.014015973
222	0xbc11478e	-0.008867158
223	0xbcaa6841	-0.020801665
224	0xbc70e337	-0.01470261
225	0xbc58587a	-0.013204688
226	0xbca55c87	-0.020185722
227	0x3befe3f8	0.007320877
228	0xbbfda0aa	-0.0077401
229	0x3bccf00d	0.006254202
230	0xbc22ceeb	-0.009937028
231	0xbacb4013	-0.0015506767
232	0xbb1a474e	-0.0023541036
233	0x3c6fa84b	0.0146275265
234	0xbbce2458	-0.0062909536
235	0x3c850945	0.016239772
236	0xbb3581f3	-0.0027695864
237	0x3c342d2f	0.010997101
238	0xbc70a542	-0.014687838
239	0xbab99a8b	-0.0014160437
240	0xbbf99d63	-0.007617639
241	0xbb3a63cb	-0.002844083
242	0x3acd77cf	0.0015675965
243	0x3aa99087	0.0012936749
244	0x390f8585	0.00013687283
245	0xb979fb05	-0.00023840003
246	0xb9f8247f	-0.00047329438
247	0xbc87b832	-0.016567323
248	0x3b8b3574	0.0042483155
249	0x3a496001	0.0007681847
250	0xbc5641f5	-0.013077249
251	0xbaa374da	-0.0012470738
252	0xbb5efd1b	-0.0034025374
253	0xbba81b00	-0.005130172
254	0x3b83bf5b	0.004020614
255	0xbba1b261	-0.0049345945

action_model._discrete_distribution.branches.0.bias f4 [5]
0	0x00000000	0.0
1	0x00000000	0.0
2	0x00000000	0.0
3	0x00000000	0.0
4	0x00000000	0.0

network_body._body_endoder.seq_layers.0.weight f4 [128, 1]
0	0x3f187ea6	0.5956825
1	0x3f2cb995	0.67470676
2	0xbfafb640	-1.3727493
3	0x3f1ea0bb	0.61964005
4	0xbf80ebde	-1.0071981
5	0x3f92e529	1.1476184
6	0xbf84a793	-1.036364
7	0x3e638948	0.22220337
8	0x3fa357a2	1.2761118
9	0xbf24b083	-0.64331836
10	0x3ec928bf	0.392889
11	0x3e4c1e4b	0.19933431
12	0xbf46f5f8	-0.7771907
13	0x3f60ee1a	0.87863314
14	0xbf737af4	-0.95109487
15	0xbea18fd1	-0.31555036
16	0xbdf2a1f8	-0.11847299
17	0xbeed7cfc	-0.46384418
18	0xbfb0f471	-1.3824598
19	0x3e9240f6	0.28565186
20	0x3facc56a	1.3497746
21	0x3f73a711	0.951768
22	0x3fcf5360	1.6197319
23	0xbf6ba812	-0.9205333
24	0xbef2014e	-0.4726662
25	0xbef53fd7	-0.47900268
26	0x3f58ee20	0.8473835
27	0x3f072441	0.52789694
28	0x3f1cabcc	0.6119964
29	0x3f01e2ee	0.5073689
30	0xbff1ec35	-1.890021
31	0x3f6310d7	0.8869757
32	0xbfa9ba34	-1.325995
33	0xbf04f838	-0.5194125
34	0xbf8658fd	-1.0495907
35	0xbe11802b	-0.14209048
36	0x3f04e4fb	0.51911896
37	0xbe828a61	-0.254962
38	0x3e0d650c	0.13808078
39	0xbf1b25b7	-0.60604423
40	0xbf1add5f	-0.60494035
41	0x3f19b459	0.60040814
42	0xbf0bcfb0	-0.5461378
43	0xbfb0eaae	-1.3821619
44	0xbe21cb90	-0.15800309
45	0x3e9ac862	0.30231005
46	0xbf8062f9	-1.0030204
47	0xbf3309f3	-0.69937056
48	0xbf32b280	-0.6980362
49	0xbdedad73	-0.116053484
50	0x3fc22bdd	1.5169636
51	0x3ede167a	0.43376523
52	0x3e9806d3	0.29692706
53	0x3f12827e	0.57230365
54	0x3f65c88f	0.89759153
55	0xbffe4af2	-1.9866621
56	0x3f6ecf58	0.9328513
57	0x3ea62d2f	0.32456347
58	0x3e8517e6	0.25994796
59	0x3ff173a6	1.8863418
60	0x3f59c84e	0.85071266
61	0x3f45106e	0.76978195
62	0x3f7d477a	0.9893719
63	0x3edfefce	0.43737644
64	0x3e813ea0	0.25243092
65	0x3f5a5804	0.8529055
66	0xbf6a0a41	-0.91421896
67	0x3e74c6c1	0.23903944
68	0xbf7b0a1d	-0.98062307
69	0xbf34eb28	-0.7067132
70	0xbdf3b967	-0.11900597
71	0xbf09b25d	-0.53787786
72	0xbf6121e0	-0.87942314
73	0xbe96cb0d	-0.2945179
74	0xbf3f2e79	-0.74680287
75	0xbe50f862	-0.2040725
76	0x400c6b99	2.1940672
77	0x3e0cb112	0.13739422
78	0xbf5708f7	-0.83998054
79	0xbf37ace0	-0.7174816
80	0x3ebf689a	0.37384492
81	0x3cefb94a	0.029263157
82	0x3ffa6577	1.9562215
83	0xbebf1c9a	-0.3732651
84	0x3f0a8b77	0.54119056
85	0x3f6b4e76	0.91916597
86	0x3ef54b34	0.47908938
87	0x3ed1bed3	0.409659
88	0xc017668b	-2.3656337
89	0xbe8b51f4	-0.27210963
90	0xbf2808fc	-0.6563871
91	0x3fa54924	1.2912946
92	0x3f48c246	0.7842144
93	0x3fa56743	1.2922138
94	0xbf7e70ba	-0.9939076
95	0xbf313e19	-0.6923538
96	0xbbd78b10	-0.006577857
97	0x3f5cb7b2	0.86217797
98	0xbec5bc6c	-0.38620317
99	0xbe940cd5	-0.2891604
100	0x3f276e8b	0.6540305
101	0xbf27cb6c	-0.6554477
102	0xbf20844f	-0.62701887
103	0xbf5462f0	-0.82963467
104	0xc012ff54	-2.296834
105	0x3f173457	0.5906424
106	0xbf2180d3	-0.63087195
107	0x3de5aa54	0.11214128
108	0x3d6e6748	0.058203965
109	0xbeb1e463	-0.34744558
110	0xbdc5d233	-0.09659233
111	0x3ff76611	1.9328023
112	0xbeb3bca4	-0.3510486
113	0x3fac0a00	1.3440552
114	0xc034f7c6	-2.827623
115	0xbde06820	-0.1095736
116	0xbdfa3748	-0.12217575
117	0x3d31c276	0.043398343
118	0x3b006440	0.0019591004
119	0xbd935f33	-0.07195892
120	0xbe83b28c	-0.25722158
121	0xbf63e316	-0.8901838
122	0x3eee7820	0.46576023
123	0x3eba197b	0.36347565
124	0xbf59405b	-0.84863824
125	0x3fcdd8b4	1.6081758
126	0x3f8e22e8	1.1104403
127	0xbf800bd3	-1.0003608

network_body._body_endoder.seq_layers.0.bias f4 [128]
0	0x00000000	0.0
1	0x00000000	0.0
2	0x00000000	0.0
3	0x00000000	0.0
4	0x00000000	0.0
5	0x00000000	0.0
6	0x00000000	0.0
7	0x00000000	0.0
8	0x00000000	0.0
9	0x00000000	0.0
10	0x00000000	0.0
11	0x00000000	0.0
12	0x00000000	0.0
13	0x00000000	0.0
14	0x00000000	0.0
15	0x00000000	0.0
16	0x00000000	0.0
17	0x00000000	0.0
18	0x00000000	0.0
19	0x00000000	0.0
20	0x00000000	0.0
21	0x00000000	0.0
22	0x00000000	0.0
23	0x00000000	0.0
24	0x00000000	0.0
25	0x00000000	0.0
26	0x00000000	0.0
27	0x00000000	0.0
28	0x00000000	0.0
29	0x00000000	0.0
30	0x00000000	0.0
31	0x00000000	0.0
32	0x00000000	0.0
33	0x00000000	0.0
34	0x00000000	0.0
35	0x00000000	0.0
36	0x00000000	0.0
37	0x00000000	0.0
38	0x00000000	0.0
39	0x00000000	0.0
40	0x00000000	0.0
41	0x00000000	0.0
42	0x00000000	0.0
43	0x00000000	0.0
44	0x00000000	0.0
45	0x00000000	0.0
46	0x00000000	0.0
47	0x00000000	0.0
48	0x00000000	0.0
49	0x00000000	0.0
50	0x00000000	0.0
51	0x00000000	0.0
52	0x00000000	0.0
53	0x00000000	0.0
54	0x00000000	0.0
55	0x00000000	0.0
56	0x00000000	0.0
57	0x00000000	0.0
58	0x00000000	0.0
59	0x00000000	0.0
60	0x00000000	0.0
61	0x00000000	0.0
62	0x00000000	0.0
63	0x00000000	0.0
64	0x00000000	0.0
65	0x00000000	0.0
66	0x00000000	0.0
67	0x00000000	0.0
68	0x00000000	0.0
69	0x00000000	0.0
70	0x00000000	0.0
71	0x00000000	0.0
72	0x00000000	0.0
73	0x00000000	0.0
74	0x00000000	0.0
75	0x00000000	0.0
76	0x00000000	0.0
77	0x00000000	0.0
78	0x00000000	0.0
79	0x00000000	0.0
80	0x00000000	0.0
81	0x00000000	0.0
82	0x00000000	0.0
83	0x00000000	0.0
84	0x00000000	0.0
85	0x00000000	0.0
86	0x00000000	0.0
87	0x00000000	0.0
88	0x00000000	0.0
89	0x00000000	0.0
90	0x00000000	0.0
91	0x00000000	0.0
92	0x00000000	0.0
93	0x00000000	0.0
94	0x00000000	0.0
95	0x00000000	0.0
96	0x00000000	0.0
97	0x00000000	0.0
98	0x00000000	0.0
99	0x00000000	0.0
100	0x00000000	0.0
101	0x00000000	0.0
102	0x00000000	0.0
103	0x00000000	0.0
104	0x00000000	0.0
105	0x00000000	0.0
106	0x00000000	0.0
107	0x00000000	0.0
108	0x00000000	0.0
109	0x00000000	0.0
110	0x00000000	0.0
111	0x00000000	0.0
112	0x00000000	0.0
113	0x00000000	0.0
114	0x00000000	0.0
115	0x00000000	0.0
116	0x00000000	0.0
117	0x00000000	0.0
118	0x00000000	0.0
119	0x00000000	0.0
120	0x00000000	0.0
121	0x00000000	0.0
122	0x00000000	0.0
123	0x00000000	0.0
124	0x00000000	0.0
125	0x00000000	0.0
126	0x00000000	0.0
127	0x00000000	0.0

network_body._body_endoder.seq_layers.2.weight f4 [128, 128]
0	0x3c26077f	0.010133623
1	0x3e486bbd	0.19572349
2	0xbc7d8d04	-0.015475515
3	0x3d86b1d0	0.06576884
4	0xbda3555d	-0.07975266
5	0xbdc9e8f5	-0.09858886
6	0x3d74dbea	0.05978004
7	0x3ddb6690	0.107129216
8	0x3d0e3a30	0.03472346
9	0x3c6f9b91	0.014624492
10	0xbda3a4aa	-0.079903916
11	0xbc3aa9b8	-0.011393003
12	0xbe164bb0	-0.1467731
13	0x3e0309c3	0.12796693
14	0x3e31e427	0.1737219
15	0x3da40ea9	0.08010609
16	0xbd2a2c9c	-0.04154645
17	0xbda6bacf	-0.081411
18	0x3d2c7515	0.042103846
19	0xbe245124	-0.16046578
20	0xbb87bef7	-0.004142638
21	0x3b126576	0.0022338307
22	0xbd659f0e	-0.05605989
23	0xbd82c637	-0.06385463
24	0xbd346211	-0.044038836
25	0x3d2a0cc3	0.041516077
26	0x3d179250	0.03700477
27	0xbd35f7bb	-0.044425707
28	0x3da17907	0.07884412
29	0x3e3456b6	0.17611203
30	0xbdc3a6dc	-0.0955331
31	0x3c024d98	0.00795307
32	0xbd4ebdaa	-0.050473846
33	0xbd83436b	-0.06409343
34	0x3d9d1ada	0.07671137
35	0x3e05ac11	0.1305392
36	0xbdf3f355	-0.11911646
37	0xbe1cfe92	-0.15331486
38	0x3d950c13	0.072776936
39	0x3c90557e	0.01761889
40	0x3d83c9e5	0.06434993
41	0x3c4b17fe	0.012395857
42	0x3cd26b0d	0.025685811
43	0x3dd877d9	0.10569734
44	0x3cd1755b	0.025568655
45	0x3c8c914e	0.01715913
46	0xbd889ad3	-0.066701554
47	0xbc164cc4	-0.009173576
48	0xbdb8167d	-0.08988664
49	0x3d61c76d	0.055121828
50	0x3db0efd3	0.08639493
51	0xbdedd6a1	-0.11613203
52	0x3d9106af	0.07081353
53	0xbdcf94ee	-0.10135828
54	0x3c52d374	0.012867797
55	0xba88476f	-0.0010397265
56	0x3e079a1f	0.13242386
57	0xbcf1624c	-0.029465817
58	0xbc549c75	-0.012976755
59	0xbd98c6e4	-0.074598104
60	0x3cda56d4	0.026652731
61	0x3dc1a62b	0.09455522
62	0xbd3f461b	-0.046697717
63	0xbce69a88	-0.028149858
64	0xbc204923	-0.009783062
65	0xbcb39a96	-0.021924298
66	0xbba6d1ba	-0.0050909193
67	0x3c5d8c28	0.013522185
68	0x3ddd8c80	0.10817814
69	0xbe0e7b9c	-0.1391434
70	0xbd910237	-0.070805006
71	0xbdb3f7ff	-0.08787536
72	0x3d9fbc84	0.077996284
73	0x3d7378d5	0.059441406
74	0x3d16dab3	0.03682966
75	0x3d3924bf	0.04520106
76	0xbe03dba9	-0.12876762
77	0x3cb98949	0.02264847
78	0x3cfdff02	0.031005386
79	0xbddfd306	-0.109289214
80	0x3d887327	0.066625886
81	0xbbacfec6	-0.005279395
82	0x3e1e67bb	0.15469258
83	0xbdc4b667	-0.09605103
84	0xbe21e31a	-0.15809289
85	0x3cc48a63	0.02399177
86	0xbdc78c1a	-0.09743519
87	0x3dda7c05	0.10668186
88	0x3e16caa5	0.1472574
89	0xbddf35af	-0.10898911
90	0x3ca3e850	0.020008236
91	0xbd748bd2	-0.059703656
92	0xbb68cad6	-0.003552129
93	0xbc4cb31c	-0.012493875
94	0x3dde8fdb	0.10867282
95	0xbd8ae437	-0.0678181
96	0xbdd29b06	-0.102834746
97	0x3d53f832	0.05175037
98	0xbdb37e57	-0.08764332
99	0xbcf3fcf3	-0.029783702
100	0xbe07510c	-0.1321451
101	0x3dba1864	0.090866834
102	0xbcc97af3	-0.02459476
103	0x3de2392d	0.11046062
104	0x3e41396b	0.1886956
105	0x3bde14bd	0.0067773745
106	0xbde8ef52	-0.11373772
107	0x3caa06ca	0.02075519
108	0xbd0715ed	-0.032979894
109	0xbd9815b9	-0.07426018
110	0x3e47b9dc	0.19504493
111	0xbac4338a	-0.0014968973
112	0x3d4f506c	0.050613806
113	0x3e3721a7	0.17883931
114	0x3d410538	0.047124118
115	0xbdaa9892	-0.08329882
116	0x3d6fc530	0.058537662
117	0xbd2610ac	-0.040543243
118	0xb95b5aab	-0.00020919244
119	0x3da58525	0.08082036
120	0x3e135e39	0.14391412
121	0x3de54e45	0.11196569
122	0x3db64f8d	0.08901892
123	0xbcc33030	-0.023826689
124	0xbe2b4fdc	-0.16729683
125	0x3cc13780	0.023586035
126	0xbd159b79	-0.036525223
127	0x3d4e5b11	0.050379816
128	0x3d872af8	0.065999925
129	0xbe17e888	-0.14834797
130	0x3de7c5e4	0.113170415
131	0x3e013d0e	0.12620947
132	0x3d4f17a5	0.05055966
133	0x3d2c515d	0.04206978
134	0x3cc525e9	0.024065929
135	0xbc26adf4	-0.01017331
136	0xbe2cdda3	-0.16881423
137	0xbd11f53d	-0.035634268
138	0x393ad57f	0.00017817876
139	0x3e62ed7a	0.22160903
140	0x3d6bd423	0.057575356
141	0xbd9de108	-0.07708937
142	0x3be9b66d	0.0071323426
143	0xbc019def	-0.007911189
144	0xbd7d7973	-0.0618834
145	0xbc5c4442	-0.013444008
146	0x3d4f514a	0.050614633
147	0x3e4b2dd1	0.19841696
148	0x3d4b5872	0.049644895
149	0x3d926b4c	0.071493715
150	0x3c2b5b32	0.010458754
151	0xbbb532e9	-0.0055297506
152	0x3cc118e4	0.02357144
153	0x3d84459a	0.06458588
154	0xbdb45335	-0.08804933
155	0xbd63f502	-0.05565358
156	0x3da4df37	0.08050387
157	0x3d798ccf	0.0609253
158	0xbc3bb4d5	-0.011456688
159	0xbdca2cf6	-0.09871857
160	0xbddc4509	-0.10755355
161	0xbd9241bd	-0.07141445
162	0xbd7af773	-0.061271142
163	0xbcc2d05e	-0.023780998
164	0xbd893aa8	-0.06700641
165	0x3db4b9cd	0.08824501
166	0xbd8b6ff0	-0.0680846
167	0xbcdd9e1c	-0.027052931
168	0x3cee24d8	0.029070303
169	0xbcdb3fe0	-0.026763856
170	0xbd87847e	-0.06617068
171	0x3d0f9205	0.035051364
172	0x3d39e4b7	0.045384135
173	0xbdae3284	-0.08505729
174	0x3c3838b1	0.011243985
175	0xbc094985	-0.008379345
176	0xbb8816e8	-0.0041531213
177	0xbd8707bb	-0.06593271
178	0xbcbdf091	-0.023186
179	0xbda0febb	-0.07861086
180	0xbd222926	-0.039590023
181	0xbd10ddbd	-0.035367716
182	0x3dade1c1	0.08490325
183	0xbde6ae19	-0.11263675
184	0x3db7fec8	0.089841425
185	0xbd943dff	-0.07238387
186	0x3d247bb2	0.040157028
187	0xb9d0e768	-0.00039845263
188	0x3dbb2c7a	0.091393426
189	0x3d09dca4	0.033657685
190	0x3d911b15	0.070852436
191	0x3d4a26c9	0.049353395
192	0x3dc2fd7b	0.09521004
193	0xbd044f34	-0.032302096
194	0xbcf28afb	-0.029607287
195	0x3dbdf69b	0.09275552
196	0x3d94259f	0.07233738
197	0xbd8987b8	-0.067153394
198	0x3c37f022	0.011226686
199	0x3dbf9c0c	0.093559355
200	0xb9ca5c80	-0.0003859736
201	0xbd2b6fda	-0.041854717
202	0xbd54cadc	-0.051951274
203	0xbdeed467	-0.11661606
204	0xbcc50204	-0.024048813
205	0xbe34d600	-0.1765976
206	0x3d71b485	0.059010047
207	0x3d3c7938	0.04601404
208	0xbdce8278	-0.10083479
209	0xbc977d6b	-0.018492421
210	0xbd70702e	-0.058700733
211	0x3cf131d4	0.029442705
212	0x3d0ef3a0	0.034900308
213	0xbc96340d	-0.018335367
214	0x3ccd4715	0.025058309
215	0xbce9ac8f	-0.028524665
216	0x3c7d1ecb	0.015449236
217	0x3c19ffdd	0.0093993815
218	0x3d128a1b	0.03577624
219	0xbd62a17f	-0.055329796
220	0x3d8edcae	0.06975685
221	0xbe184556	-0.148702
222	0xbde812bb	-0.113316976
223	0x3d990a74	0.07472697
224	0x3d315ffb	0.043304425
225	0x3d77ea34	0.060526088
226	0x3d0b81f5	0.034059484
227	0x3e394578	0.18092906
228	0x3e4dba4e	0.20090601
229	0xbd6fd26c	-0.058550283
230	0xbc22cc18	-0.009936355
231	0x3c2e63ec	0.01064394
232	0x3c52dd78	0.012870185
233	0x3dd85aca	0.10564192
234	0x3e4daefa	0.2008628
235	0xbcf96b03	-0.030446535
236	0x3c27fadf	0.010252683
237	0x3d1434bc	0.036183104
238	0xbdd055c0	-0.101726055
239	0x3ce3b15e	0.027794536
240	0x3d27348e	0.040821604
241	0x3c761201	0.015018941
242	0x3d0b7cd8	0.034054607
243	0xbc7f78c6	-0.0155927595
244	0xbd7c0fad	-0.061538387
245	0x3d0e6a6c	0.03476946
246	0x3d28c05f	0.041199084
247	0xbc6a6590	-0.014306441
248	0x3d8dc77f	0.069228165
249	0xbd9acb65	-0.07558326
250	0xbd17171b	-0.03688727
251	0x3d88abad	0.066733696
252	0x3d379e0e	0.044828467
253	0xbd48499c	-0.048898324
254	0xbdc86d8c	-0.097865194
255	0xbe045874	-0.12924367

network_body._body_endoder.seq_layers.2.bias f4 [128]
0	0x00000000	0.0
1	0x00000000	0.0
2	0x00000000	0.0
3	0x00000000	0.0
4	0x00000000	0.0
5	0x00000000	0.0
6	0x00000000	0.0
7	0x00000000	0.0
8	0x00000000	0.0
9	0x00000000	0.0
10	0x00000000	0.0
11	0x00000000	0.0
12	0x00000000	0.0
13	0x00000000	0.0
14	0x00000000	0.0
15	0x00000000	0.0
16	0x00000000	0.0
17	0x00000000	0.0
18	0x00000000	0.0
19	0x00000000	0.0
20	0x00000000	0.0
21	0x00000000	0.0
22	0x00000000	0.0
23	0x00000000	0.0
24	0x00000000	0.0
25	0x00000000	0.0
26	0x00000000	0.0
27	0x00000000	0.0
28	0x00000000	0.0
29	0x00000000	0.0
30	0x00000000	0.0
31	0x00000000	0.0
32	0x00000000	0.0
33	0x00000000	0.0
34	0x00000000	0.0
35	0x00000000	0.0
36	0x00000000	0.0
37	0x00000000	0.0
38	0x00000000	0.0
39	0x00000000	0.0
40	0x00000000	0.0
41	0x00000000	0.0
42	0x00000000	0.0
43	0x00000000	0.0
44	0x00000000	0.0
45	0x00000000	0.0
46	0x00000000	0.0
47	0x00000000	0.0
48	0x00000000	0.0
49	0x00000000	0.0
50	0x00000000	0.0
51	0x00000000	0.0
52	0x00000000	0.0
53	0x00000000	0.0
54	0x00000000	0.0
55	0x00000000	0.0
56	0x00000000	0.0
57	0x00000000	0.0
58	0x00000000	0.0
59	0x00000000	0.0
60	0x00000000	0.0
61	0x00000000	0.0
62	0x00000000	0.0
63	0x00000000	0.0
64	0x00000000	0.0
65	0x00000000	0.0
66	0x00000000	0.0
67	0x00000000	0.0
68	0x00000000	0.0
69	0x00000000	0.0
70	0x00000000	0.0
71	0x00000000	0.0
72	0x00000000	0.0
73	0x00000000	0.0
74	0x00000000	0.0
75	0x00000000	0.0
76	0x00000000	0.0
77	0x00000000	0.0
78	0x00000000	0.0
79	0x00000000	0.0
80	0x00000000	0.0
81	0x00000000	0.0
82	0x00000000	0.0
83	0x00000000	0.0
84	0x00000000	0.0
85	0x00000000	0.0
86	0x00000000	0.0
87	0x00000000	0.0
88	0x00000000	0.0
89	0x00000000	0.0
90	0x00000000	0.0
91	0x00000000	0.0
92	0x00000000	0.0
93	0x00000000	0.0
94	0x00000000	0.0
95	0x00000000	0.0
96	0x00000000	0.0
97	0x00000000	0.0
98	0x00000000	0.0
99	0x00000000	0.0
100	0x00000000	0.0
101	0x00000000	0.0
102	0x00000000	0.0
103	0x00000000	0.0
104	0x00000000	0.0
105	0x00000000	0.0
106	0x00000000	0.0
107	0x00000000	0.0
108	0x00000000	0.0
109	0x00000000	0.0
110	0x00000000	0.0
111	0x00000000	0.0
112	0x00000000	0.0
113	0x00000000	0.0
114	0x00000000	0.0
115	0x00000000	0.0
116	0x00000000	0.0
117	0x00000000	0.0
118	0x00000000	0.0
119	0x00000000	0.0
120	0x00000000	0.0
121	0x00000000	0.0
122	0x00000000	0.0
123	0x00000000	0.0
124	0x00000000	0.0
125	0x00000000	0.0
126	0x00000000	0.0
127	0x00000000	0.0

value_heads.value_heads.extrinsic.weight f4 [1, 128]
0	0xbd385d24	-0.0450107
1	0xbda8dbca	-0.082450464
2	0xbe05006f	-0.12988447
3	0xbde05697	-0.10954016
4	0x3ddc0ed8	0.10745019
5	0xbdb2cb8a	-0.08730228
6	0xbd0dab50	-0.034587204
7	0x3e2d8858	0.16946542
8	0x3e3efca6	0.18651065
9	0xbc157460	-0.009121984
10	0xbdf05839	-0.11735577
11	0xbe1c6e84	-0.15276533
12	0x3df39134	0.1189293
13	0xbccd2430	-0.02504167
14	0xbd37cba0	-0.044871926
15	0x3e2db43a	0.16963282
16	0xbcd55100	-0.0260396
17	0x3e57de5a	0.21080914
18	0x3d9f58dc	0.077806205
19	0x3d1f4fb8	0.038894385
20	0xbe3bd1a0	-0.18341684
21	0x3d657ba8	0.05602613
22	0x3ddf5c90	0.10906327
23	0x3d194f40	0.037429094
24	0xbe13cfa7	-0.14434682
25	0x3dbd640c	0.09247598
26	0xb9d01a00	-0.00039692223
27	0x3e1d7042	0.15374854
28	0xbdb90e1e	-0.09035896
29	0xbcf91678	-0.030406222
30	0xbe2b09e0	-0.16702986
31	0x3de5fba4	0.11229637
32	0x3e2442be	0.16041085
33	0x3e31814e	0.17334482
34	0x3e490060	0.1962905
35	0x3d9b4308	0.075811446
36	0x3e372e6e	0.17888805
37	0x3d167db0	0.03674096
38	0xbd0d04fc	-0.03442858
39	0x3d90db34	0.0707306
40	0x3e169220	0.1470418
41	0xbe393e52	-0.1809018
42	0xbdbcbe4a	-0.09215982
43	0xbe32c6ce	-0.1745865
44	0x3d032e70	0.032026708
45	0xbdd98535	-0.1062111
46	0xbde2be5b	-0.11071464
47	0xbd151158	-0.036393493
48	0x3d4cb2d8	0.049975246
49	0xbd76f3cc	-0.060291097
50	0x3d76d2b8	0.06025955
51	0xbda429c6	-0.0801578
52	0x3e26fa48	0.16306412
53	0xbe54b472	-0.2077196
54	0xbc250bd0	-0.010073617
55	0xbe169992	-0.1470702
56	0xbd87d61a	-0.066326335
57	0x3dc6fcf8	0.09716219
58	0x3df0cdec	0.117580265
59	0xbe1be332	-0.15223387
60	0x3e5b715a	0.21429959
61	0x3db12c88	0.08651072
62	0xbe0dbef4	-0.13842374
63	0xbcd788c0	-0.026310325
64	0xbe52a6d4	-0.20571452
65	0xbcda6ab0	-0.0266622
66	0x3dd5bccc	0.10436401
67	0xbd05e49c	-0.032688722
68	0xbe470fac	-0.19439572
69	0xbc987b90	-0.018613607
70	0x3dbf7880	0.093491554
71	0xbe09f54e	-0.13472483
72	0xbd9e5032	-0.0773014
73	0x3d88a740	0.066725254
74	0x3e3c2768	0.18374407
75	0x3e3e4174	0.18579656
76	0x3dcc74f0	0.099832416
77	0x3dd604f0	0.104501605
78	0x3dd1fb5c	0.10253021
79	0x3e4aa98c	0.1979124
80	0x3e2d6aae	0.16935226
81	0x3cf3d040	0.029762387
82	0x3b821720	0.003970042
83	0x3d713f98	0.05889854
84	0x3ca10688	0.019656435
85	0x3ddd7dd8	0.108150184
86	0x3e041ee2	0.12902406
87	0x3e1aa3b6	0.15101513
88	0x3c9fe9f8	0.019520745
89	0x3d74c2a8	0.05975595
90	0xbde40051	-0.11132873
91	0xbdbaa617	-0.091137104
92	0xbe134305	-0.14381035
93	0xbd53b6c8	-0.051687986
94	0xbe4a690f	-0.19766639
95	0xbe20f867	-0.15719758
96	0x3e0382bc	0.1284284
97	0xbe1e3c2f	-0.15452646
98	0xbdd7c542	-0.10535671
99	0xbde9299f	-0.11384892
100	0xbe3e34c2	-0.18574813
101	0x3ddbc2f4	0.10730544
102	0xbe5376cd	-0.20650788
103	0x3e3dfa36	0.18552479
104	0x3cbf6c20	0.023366988
105	0x3e528006	0.2055665
106	0x3d7b9110	0.06141764
107	0x3db8ee5c	0.090298384
108	0x3e4c423c	0.19947141
109	0xbe1c19c0	-0.15244198
110	0xbd8e15d8	-0.0693776
111	0x3d026854	0.031837776
112	0xbe5c430f	-0.21509956
113	0x3d2863a8	0.041110665
114	0xbe08bf86	-0.1335431
115	0xbdd87d92	-0.10570826
116	0xbe2f818e	-0.17139265
117	0x3e584342	0.21119407
118	0xbcb550b8	-0.022133216
119	0xbdb13ff0	-0.08654773
120	0xbd5f5390	-0.05452305
121	0x3c189230	0.009312198
122	0xbd539b18	-0.05166158
123	0x3e5a7db2	0.21337011
124	0xbe5237b4	-0.20529062
125	0xbe364976	-0.1780146
126	0x3dd4a810	0.10383618
127	0x3d85d358	0.06534451
